{
  "nodes": [
    {
      "op": "null", 
      "name": "timeFeaturesPred", 
      "inputs": []
    }, 
    {
      "op": "SliceChannel", 
      "name": "dec_input_seq", 
      "attrs": {
        "axis": "2", 
        "num_outputs": "5", 
        "squeeze_axis": "True"
      }, 
      "inputs": [[0, 0, 0]]
    }, 
    {
      "op": "repeat", 
      "name": "repeat754", 
      "attrs": {
        "axis": "0", 
        "repeats": "100"
      }, 
      "inputs": [[1, 0, 0]]
    }, 
    {
      "op": "null", 
      "name": "itemFeatures", 
      "inputs": []
    }, 
    {
      "op": "SliceChannel", 
      "name": "item_features_categorical_seq", 
      "attrs": {
        "axis": "1", 
        "num_outputs": "1", 
        "squeeze_axis": "True"
      }, 
      "inputs": [[3, 0, 0]]
    }, 
    {
      "op": "null", 
      "name": "embed_0_weight", 
      "inputs": []
    }, 
    {
      "op": "Embedding", 
      "name": "item_embed_0", 
      "attrs": {
        "input_dim": "1", 
        "output_dim": "10"
      }, 
      "inputs": [[4, 0, 0], [5, 0, 0]]
    }, 
    {
      "op": "Concat", 
      "name": "item_inputs_embed", 
      "attrs": {
        "dim": "1", 
        "num_args": "1"
      }, 
      "inputs": [[6, 0, 0]]
    }, 
    {
      "op": "null", 
      "name": "trainTarget", 
      "inputs": []
    }, 
    {
      "op": "expand_dims", 
      "name": "expand_dims6", 
      "attrs": {"axis": "2"}, 
      "inputs": [[8, 0, 0]]
    }, 
    {
      "op": "SliceChannel", 
      "name": "trainTarget_seq", 
      "attrs": {
        "axis": "1", 
        "num_outputs": "749", 
        "squeeze_axis": "True"
      }, 
      "inputs": [[9, 0, 0]]
    }, 
    {
      "op": "Concat", 
      "name": "concat56", 
      "attrs": {
        "dim": "1", 
        "num_args": "20"
      }, 
      "inputs": [
        [10, 729, 0], 
        [10, 730, 0], 
        [10, 731, 0], 
        [10, 732, 0], 
        [10, 733, 0], 
        [10, 734, 0], 
        [10, 735, 0], 
        [10, 736, 0], 
        [10, 737, 0], 
        [10, 738, 0], 
        [10, 739, 0], 
        [10, 740, 0], 
        [10, 741, 0], 
        [10, 742, 0], 
        [10, 743, 0], 
        [10, 744, 0], 
        [10, 745, 0], 
        [10, 746, 0], 
        [10, 747, 0], 
        [10, 748, 0]
      ]
    }, 
    {
      "op": "abs", 
      "name": "abs1", 
      "inputs": [[11, 0, 0]]
    }, 
    {
      "op": "null", 
      "name": "observedValuesTrain", 
      "inputs": []
    }, 
    {
      "op": "expand_dims", 
      "name": "expand_dims9", 
      "attrs": {"axis": "2"}, 
      "inputs": [[13, 0, 0]]
    }, 
    {
      "op": "SliceChannel", 
      "name": "observedValuesTrain_seq", 
      "attrs": {
        "axis": "1", 
        "num_outputs": "749", 
        "squeeze_axis": "True"
      }, 
      "inputs": [[14, 0, 0]]
    }, 
    {
      "op": "Concat", 
      "name": "concat57", 
      "attrs": {
        "dim": "1", 
        "num_args": "20"
      }, 
      "inputs": [
        [15, 729, 0], 
        [15, 730, 0], 
        [15, 731, 0], 
        [15, 732, 0], 
        [15, 733, 0], 
        [15, 734, 0], 
        [15, 735, 0], 
        [15, 736, 0], 
        [15, 737, 0], 
        [15, 738, 0], 
        [15, 739, 0], 
        [15, 740, 0], 
        [15, 741, 0], 
        [15, 742, 0], 
        [15, 743, 0], 
        [15, 744, 0], 
        [15, 745, 0], 
        [15, 746, 0], 
        [15, 747, 0], 
        [15, 748, 0]
      ]
    }, 
    {
      "op": "elemwise_mul", 
      "name": "_mul381", 
      "inputs": [[12, 0, 0], [16, 0, 0]]
    }, 
    {
      "op": "sum", 
      "name": "sum3", 
      "attrs": {"axis": "1"}, 
      "inputs": [[17, 0, 0]]
    }, 
    {
      "op": "sum", 
      "name": "sum2", 
      "attrs": {"axis": "1"}, 
      "inputs": [[16, 0, 0]]
    }, 
    {
      "op": "zeros_like", 
      "name": "zeros_like71", 
      "inputs": [[19, 0, 0]]
    }, 
    {
      "op": "broadcast_greater", 
      "name": "broadcast_greater1", 
      "inputs": [[18, 0, 0], [20, 0, 0]]
    }, 
    {
      "op": "ones_like", 
      "name": "ones_like102", 
      "inputs": [[19, 0, 0]]
    }, 
    {
      "op": "broadcast_maximum", 
      "name": "broadcast_maximum1", 
      "inputs": [[19, 0, 0], [22, 0, 0]]
    }, 
    {
      "op": "broadcast_div", 
      "name": "broadcast_div26", 
      "inputs": [[18, 0, 0], [23, 0, 0]]
    }, 
    {
      "op": "ones_like", 
      "name": "ones_like103", 
      "inputs": [[24, 0, 0]]
    }, 
    {
      "op": "_mul_scalar", 
      "name": "_mulscalar76", 
      "attrs": {"scalar": "34497.42622950819"}, 
      "inputs": [[25, 0, 0]]
    }, 
    {
      "op": "where", 
      "name": "where226", 
      "inputs": [[21, 0, 0], [24, 0, 0], [26, 0, 0]]
    }, 
    {
      "op": "_maximum_scalar", 
      "name": "_maximumscalar1", 
      "attrs": {"scalar": "1e-10"}, 
      "inputs": [[27, 0, 0]]
    }, 
    {
      "op": "Reshape", 
      "name": "reshape1", 
      "attrs": {"shape": "(-1,)"}, 
      "inputs": [[28, 0, 0]]
    }, 
    {
      "op": "expand_dims", 
      "name": "expand_dims11", 
      "attrs": {"axis": "1"}, 
      "inputs": [[29, 0, 0]]
    }, 
    {
      "op": "log", 
      "name": "log51", 
      "inputs": [[30, 0, 0]]
    }, 
    {
      "op": "Concat", 
      "name": "concat58", 
      "attrs": {
        "dim": "1", 
        "num_args": "2"
      }, 
      "inputs": [[7, 0, 0], [31, 0, 0]]
    }, 
    {
      "op": "repeat", 
      "name": "repeat755", 
      "attrs": {
        "axis": "0", 
        "repeats": "100"
      }, 
      "inputs": [[32, 0, 0]]
    }, 
    {
      "op": "null", 
      "name": "isPaddedTrain", 
      "inputs": []
    }, 
    {
      "op": "expand_dims", 
      "name": "expand_dims8", 
      "attrs": {"axis": "2"}, 
      "inputs": [[34, 0, 0]]
    }, 
    {
      "op": "SliceChannel", 
      "name": "isPaddedTrain_seq", 
      "attrs": {
        "axis": "1", 
        "num_outputs": "749", 
        "squeeze_axis": "True"
      }, 
      "inputs": [[35, 0, 0]]
    }, 
    {
      "op": "zeros_like", 
      "name": "zeros_like131", 
      "inputs": [[10, 748, 0]]
    }, 
    {
      "op": "null", 
      "name": "timeFeaturesTrain", 
      "inputs": []
    }, 
    {
      "op": "SliceChannel", 
      "name": "enc_input_seq", 
      "attrs": {
        "axis": "2", 
        "num_outputs": "749", 
        "squeeze_axis": "True"
      }, 
      "inputs": [[38, 0, 0]]
    }, 
    {
      "op": "zeros_like", 
      "name": "zeros_like128", 
      "inputs": [[10, 747, 0]]
    }, 
    {
      "op": "zeros_like", 
      "name": "zeros_like125", 
      "inputs": [[10, 746, 0]]
    }, 
    {
      "op": "zeros_like", 
      "name": "zeros_like122", 
      "inputs": [[10, 745, 0]]
    }, 
    {
      "op": "zeros_like", 
      "name": "zeros_like119", 
      "inputs": [[10, 744, 0]]
    }, 
    {
      "op": "zeros_like", 
      "name": "zeros_like116", 
      "inputs": [[10, 743, 0]]
    }, 
    {
      "op": "zeros_like", 
      "name": "zeros_like113", 
      "inputs": [[10, 742, 0]]
    }, 
    {
      "op": "zeros_like", 
      "name": "zeros_like110", 
      "inputs": [[10, 741, 0]]
    }, 
    {
      "op": "zeros_like", 
      "name": "zeros_like107", 
      "inputs": [[10, 740, 0]]
    }, 
    {
      "op": "zeros_like", 
      "name": "zeros_like104", 
      "inputs": [[10, 739, 0]]
    }, 
    {
      "op": "zeros_like", 
      "name": "zeros_like101", 
      "inputs": [[10, 738, 0]]
    }, 
    {
      "op": "zeros_like", 
      "name": "zeros_like98", 
      "inputs": [[10, 737, 0]]
    }, 
    {
      "op": "zeros_like", 
      "name": "zeros_like95", 
      "inputs": [[10, 736, 0]]
    }, 
    {
      "op": "zeros_like", 
      "name": "zeros_like92", 
      "inputs": [[10, 735, 0]]
    }, 
    {
      "op": "zeros_like", 
      "name": "zeros_like89", 
      "inputs": [[10, 734, 0]]
    }, 
    {
      "op": "zeros_like", 
      "name": "zeros_like86", 
      "inputs": [[10, 733, 0]]
    }, 
    {
      "op": "zeros_like", 
      "name": "zeros_like83", 
      "inputs": [[10, 732, 0]]
    }, 
    {
      "op": "zeros_like", 
      "name": "zeros_like80", 
      "inputs": [[10, 731, 0]]
    }, 
    {
      "op": "zeros_like", 
      "name": "zeros_like77", 
      "inputs": [[10, 730, 0]]
    }, 
    {
      "op": "zeros_like", 
      "name": "zeros_like74", 
      "inputs": [[10, 729, 0]]
    }, 
    {
      "op": "Concat", 
      "name": "concat59", 
      "attrs": {
        "dim": "1", 
        "num_args": "27"
      }, 
      "inputs": [
        [10, 728, 0], 
        [10, 727, 0], 
        [10, 726, 0], 
        [10, 725, 0], 
        [10, 724, 0], 
        [10, 723, 0], 
        [10, 722, 0], 
        [10, 721, 0], 
        [10, 716, 0], 
        [10, 715, 0], 
        [10, 714, 0], 
        [10, 709, 0], 
        [10, 708, 0], 
        [10, 707, 0], 
        [10, 702, 0], 
        [10, 701, 0], 
        [10, 700, 0], 
        [10, 699, 0], 
        [10, 698, 0], 
        [10, 673, 0], 
        [10, 645, 0], 
        [10, 366, 0], 
        [10, 365, 0], 
        [10, 364, 0], 
        [10, 2, 0], 
        [10, 1, 0], 
        [10, 0, 0]
      ]
    }, 
    {
      "op": "broadcast_div", 
      "name": "broadcast_div27", 
      "inputs": [[59, 0, 0], [30, 0, 0]]
    }, 
    {
      "op": "Concat", 
      "name": "concat60", 
      "attrs": {
        "dim": "1", 
        "num_args": "3"
      }, 
      "inputs": [[39, 729, 0], [32, 0, 0], [60, 0, 0]]
    }, 
    {
      "op": "null", 
      "name": "lstm_l_0i2h_weight", 
      "inputs": []
    }, 
    {
      "op": "null", 
      "name": "lstm_l_0i2h_bias", 
      "attrs": {"__init__": "[\"lstmbias\", {\"forget_bias\": 1.0}]"}, 
      "inputs": []
    }, 
    {
      "op": "FullyConnected", 
      "name": "lstm_l_0t0_i2h", 
      "attrs": {"num_hidden": "160"}, 
      "inputs": [[61, 0, 0], [62, 0, 0], [63, 0, 0]]
    }, 
    {
      "op": "_zeros", 
      "name": "lstm_l_0begin_state_0", 
      "attrs": {
        "__layout__": "NC", 
        "dtype": "float32", 
        "shape": "(0, 40)"
      }, 
      "inputs": []
    }, 
    {
      "op": "where", 
      "name": "where227", 
      "inputs": [[36, 729, 0], [65, 0, 0], [65, 0, 0]]
    }, 
    {
      "op": "null", 
      "name": "lstm_l_0h2h_weight", 
      "inputs": []
    }, 
    {
      "op": "null", 
      "name": "lstm_l_0h2h_bias", 
      "inputs": []
    }, 
    {
      "op": "FullyConnected", 
      "name": "lstm_l_0t0_h2h", 
      "attrs": {"num_hidden": "160"}, 
      "inputs": [[66, 0, 0], [67, 0, 0], [68, 0, 0]]
    }, 
    {
      "op": "elemwise_add", 
      "name": "_plus100", 
      "inputs": [[64, 0, 0], [69, 0, 0]]
    }, 
    {
      "op": "SliceChannel", 
      "name": "lstm_l_0t0_slice", 
      "attrs": {"num_outputs": "4"}, 
      "inputs": [[70, 0, 0]]
    }, 
    {
      "op": "Activation", 
      "name": "lstm_l_0t0_o", 
      "attrs": {"act_type": "sigmoid"}, 
      "inputs": [[71, 3, 0]]
    }, 
    {
      "op": "Activation", 
      "name": "lstm_l_0t0_f", 
      "attrs": {"act_type": "sigmoid"}, 
      "inputs": [[71, 1, 0]]
    }, 
    {
      "op": "_zeros", 
      "name": "lstm_l_0begin_state_1", 
      "attrs": {
        "__layout__": "NC", 
        "dtype": "float32", 
        "shape": "(0, 40)"
      }, 
      "inputs": []
    }, 
    {
      "op": "where", 
      "name": "where228", 
      "inputs": [[36, 729, 0], [74, 0, 0], [74, 0, 0]]
    }, 
    {
      "op": "elemwise_mul", 
      "name": "_mul382", 
      "inputs": [[73, 0, 0], [75, 0, 0]]
    }, 
    {
      "op": "Activation", 
      "name": "lstm_l_0t0_i", 
      "attrs": {"act_type": "sigmoid"}, 
      "inputs": [[71, 0, 0]]
    }, 
    {
      "op": "Activation", 
      "name": "lstm_l_0t0_c", 
      "attrs": {"act_type": "tanh"}, 
      "inputs": [[71, 2, 0]]
    }, 
    {
      "op": "elemwise_mul", 
      "name": "_mul383", 
      "inputs": [[77, 0, 0], [78, 0, 0]]
    }, 
    {
      "op": "elemwise_add", 
      "name": "lstm_l_0t0_state", 
      "inputs": [[76, 0, 0], [79, 0, 0]]
    }, 
    {
      "op": "Activation", 
      "name": "activation100", 
      "attrs": {"act_type": "tanh"}, 
      "inputs": [[80, 0, 0]]
    }, 
    {
      "op": "elemwise_mul", 
      "name": "lstm_l_0t0_out", 
      "inputs": [[72, 0, 0], [81, 0, 0]]
    }, 
    {
      "op": "null", 
      "name": "lstm_l_1i2h_weight", 
      "inputs": []
    }, 
    {
      "op": "null", 
      "name": "lstm_l_1i2h_bias", 
      "attrs": {"__init__": "[\"lstmbias\", {\"forget_bias\": 1.0}]"}, 
      "inputs": []
    }, 
    {
      "op": "FullyConnected", 
      "name": "lstm_l_1t0_i2h", 
      "attrs": {"num_hidden": "160"}, 
      "inputs": [[82, 0, 0], [83, 0, 0], [84, 0, 0]]
    }, 
    {
      "op": "_zeros", 
      "name": "lstm_l_1begin_state_0", 
      "attrs": {
        "__layout__": "NC", 
        "dtype": "float32", 
        "shape": "(0, 40)"
      }, 
      "inputs": []
    }, 
    {
      "op": "where", 
      "name": "where229", 
      "inputs": [[36, 729, 0], [86, 0, 0], [86, 0, 0]]
    }, 
    {
      "op": "null", 
      "name": "lstm_l_1h2h_weight", 
      "inputs": []
    }, 
    {
      "op": "null", 
      "name": "lstm_l_1h2h_bias", 
      "inputs": []
    }, 
    {
      "op": "FullyConnected", 
      "name": "lstm_l_1t0_h2h", 
      "attrs": {"num_hidden": "160"}, 
      "inputs": [[87, 0, 0], [88, 0, 0], [89, 0, 0]]
    }, 
    {
      "op": "elemwise_add", 
      "name": "_plus101", 
      "inputs": [[85, 0, 0], [90, 0, 0]]
    }, 
    {
      "op": "SliceChannel", 
      "name": "lstm_l_1t0_slice", 
      "attrs": {"num_outputs": "4"}, 
      "inputs": [[91, 0, 0]]
    }, 
    {
      "op": "Activation", 
      "name": "lstm_l_1t0_o", 
      "attrs": {"act_type": "sigmoid"}, 
      "inputs": [[92, 3, 0]]
    }, 
    {
      "op": "Activation", 
      "name": "lstm_l_1t0_f", 
      "attrs": {"act_type": "sigmoid"}, 
      "inputs": [[92, 1, 0]]
    }, 
    {
      "op": "_zeros", 
      "name": "lstm_l_1begin_state_1", 
      "attrs": {
        "__layout__": "NC", 
        "dtype": "float32", 
        "shape": "(0, 40)"
      }, 
      "inputs": []
    }, 
    {
      "op": "where", 
      "name": "where230", 
      "inputs": [[36, 729, 0], [95, 0, 0], [95, 0, 0]]
    }, 
    {
      "op": "elemwise_mul", 
      "name": "_mul384", 
      "inputs": [[94, 0, 0], [96, 0, 0]]
    }, 
    {
      "op": "Activation", 
      "name": "lstm_l_1t0_i", 
      "attrs": {"act_type": "sigmoid"}, 
      "inputs": [[92, 0, 0]]
    }, 
    {
      "op": "Activation", 
      "name": "lstm_l_1t0_c", 
      "attrs": {"act_type": "tanh"}, 
      "inputs": [[92, 2, 0]]
    }, 
    {
      "op": "elemwise_mul", 
      "name": "_mul385", 
      "inputs": [[98, 0, 0], [99, 0, 0]]
    }, 
    {
      "op": "elemwise_add", 
      "name": "lstm_l_1t0_state", 
      "inputs": [[97, 0, 0], [100, 0, 0]]
    }, 
    {
      "op": "Activation", 
      "name": "activation101", 
      "attrs": {"act_type": "tanh"}, 
      "inputs": [[101, 0, 0]]
    }, 
    {
      "op": "elemwise_mul", 
      "name": "lstm_l_1t0_out", 
      "inputs": [[93, 0, 0], [102, 0, 0]]
    }, 
    {
      "op": "elemwise_add", 
      "name": "lstm_l_1t0_out_plus_residual", 
      "inputs": [[103, 0, 0], [82, 0, 0]]
    }, 
    {
      "op": "null", 
      "name": "mu_Noneproj_weight", 
      "inputs": []
    }, 
    {
      "op": "null", 
      "name": "mu_Noneproj_bias", 
      "inputs": []
    }, 
    {
      "op": "FullyConnected", 
      "name": "fullyconnected75", 
      "attrs": {"num_hidden": "1"}, 
      "inputs": [[104, 0, 0], [105, 0, 0], [106, 0, 0]]
    }, 
    {
      "op": "elemwise_mul", 
      "name": "_mul392", 
      "inputs": [[107, 0, 0], [30, 0, 0]]
    }, 
    {
      "op": "where", 
      "name": "where235", 
      "inputs": [[36, 729, 0], [58, 0, 0], [108, 0, 0]]
    }, 
    {
      "op": "where", 
      "name": "where236", 
      "inputs": [[15, 729, 0], [10, 729, 0], [109, 0, 0]]
    }, 
    {
      "op": "Concat", 
      "name": "concat61", 
      "attrs": {
        "dim": "1", 
        "num_args": "27"
      }, 
      "inputs": [
        [110, 0, 0], 
        [10, 728, 0], 
        [10, 727, 0], 
        [10, 726, 0], 
        [10, 725, 0], 
        [10, 724, 0], 
        [10, 723, 0], 
        [10, 722, 0], 
        [10, 717, 0], 
        [10, 716, 0], 
        [10, 715, 0], 
        [10, 710, 0], 
        [10, 709, 0], 
        [10, 708, 0], 
        [10, 703, 0], 
        [10, 702, 0], 
        [10, 701, 0], 
        [10, 700, 0], 
        [10, 699, 0], 
        [10, 674, 0], 
        [10, 646, 0], 
        [10, 367, 0], 
        [10, 366, 0], 
        [10, 365, 0], 
        [10, 3, 0], 
        [10, 2, 0], 
        [10, 1, 0]
      ]
    }, 
    {
      "op": "broadcast_div", 
      "name": "broadcast_div28", 
      "inputs": [[111, 0, 0], [30, 0, 0]]
    }, 
    {
      "op": "Concat", 
      "name": "concat62", 
      "attrs": {
        "dim": "1", 
        "num_args": "3"
      }, 
      "inputs": [[39, 730, 0], [32, 0, 0], [112, 0, 0]]
    }, 
    {
      "op": "FullyConnected", 
      "name": "lstm_l_0t1_i2h", 
      "attrs": {"num_hidden": "160"}, 
      "inputs": [[113, 0, 0], [62, 0, 0], [63, 0, 0]]
    }, 
    {
      "op": "ones_like", 
      "name": "ones_like104", 
      "inputs": [[82, 0, 0]]
    }, 
    {
      "op": "Dropout", 
      "name": "dropout100", 
      "attrs": {"p": "0.1"}, 
      "inputs": [[115, 0, 0]]
    }, 
    {
      "op": "where", 
      "name": "where231", 
      "inputs": [[116, 0, 0], [82, 0, 0], [66, 0, 0]]
    }, 
    {
      "op": "where", 
      "name": "where237", 
      "inputs": [[36, 730, 0], [65, 0, 0], [117, 0, 0]]
    }, 
    {
      "op": "FullyConnected", 
      "name": "lstm_l_0t1_h2h", 
      "attrs": {"num_hidden": "160"}, 
      "inputs": [[118, 0, 0], [67, 0, 0], [68, 0, 0]]
    }, 
    {
      "op": "elemwise_add", 
      "name": "_plus104", 
      "inputs": [[114, 0, 0], [119, 0, 0]]
    }, 
    {
      "op": "SliceChannel", 
      "name": "lstm_l_0t1_slice", 
      "attrs": {"num_outputs": "4"}, 
      "inputs": [[120, 0, 0]]
    }, 
    {
      "op": "Activation", 
      "name": "lstm_l_0t1_o", 
      "attrs": {"act_type": "sigmoid"}, 
      "inputs": [[121, 3, 0]]
    }, 
    {
      "op": "Activation", 
      "name": "lstm_l_0t1_f", 
      "attrs": {"act_type": "sigmoid"}, 
      "inputs": [[121, 1, 0]]
    }, 
    {
      "op": "ones_like", 
      "name": "ones_like105", 
      "inputs": [[80, 0, 0]]
    }, 
    {
      "op": "Dropout", 
      "name": "dropout101", 
      "attrs": {"p": "0.1"}, 
      "inputs": [[124, 0, 0]]
    }, 
    {
      "op": "where", 
      "name": "where232", 
      "inputs": [[125, 0, 0], [80, 0, 0], [75, 0, 0]]
    }, 
    {
      "op": "where", 
      "name": "where238", 
      "inputs": [[36, 730, 0], [74, 0, 0], [126, 0, 0]]
    }, 
    {
      "op": "elemwise_mul", 
      "name": "_mul397", 
      "inputs": [[123, 0, 0], [127, 0, 0]]
    }, 
    {
      "op": "Activation", 
      "name": "lstm_l_0t1_i", 
      "attrs": {"act_type": "sigmoid"}, 
      "inputs": [[121, 0, 0]]
    }, 
    {
      "op": "Activation", 
      "name": "lstm_l_0t1_c", 
      "attrs": {"act_type": "tanh"}, 
      "inputs": [[121, 2, 0]]
    }, 
    {
      "op": "elemwise_mul", 
      "name": "_mul398", 
      "inputs": [[129, 0, 0], [130, 0, 0]]
    }, 
    {
      "op": "elemwise_add", 
      "name": "lstm_l_0t1_state", 
      "inputs": [[128, 0, 0], [131, 0, 0]]
    }, 
    {
      "op": "Activation", 
      "name": "activation104", 
      "attrs": {"act_type": "tanh"}, 
      "inputs": [[132, 0, 0]]
    }, 
    {
      "op": "elemwise_mul", 
      "name": "lstm_l_0t1_out", 
      "inputs": [[122, 0, 0], [133, 0, 0]]
    }, 
    {
      "op": "FullyConnected", 
      "name": "lstm_l_1t1_i2h", 
      "attrs": {"num_hidden": "160"}, 
      "inputs": [[134, 0, 0], [83, 0, 0], [84, 0, 0]]
    }, 
    {
      "op": "ones_like", 
      "name": "ones_like106", 
      "inputs": [[103, 0, 0]]
    }, 
    {
      "op": "Dropout", 
      "name": "dropout102", 
      "attrs": {"p": "0.1"}, 
      "inputs": [[136, 0, 0]]
    }, 
    {
      "op": "where", 
      "name": "where233", 
      "inputs": [[137, 0, 0], [103, 0, 0], [87, 0, 0]]
    }, 
    {
      "op": "where", 
      "name": "where239", 
      "inputs": [[36, 730, 0], [86, 0, 0], [138, 0, 0]]
    }, 
    {
      "op": "FullyConnected", 
      "name": "lstm_l_1t1_h2h", 
      "attrs": {"num_hidden": "160"}, 
      "inputs": [[139, 0, 0], [88, 0, 0], [89, 0, 0]]
    }, 
    {
      "op": "elemwise_add", 
      "name": "_plus105", 
      "inputs": [[135, 0, 0], [140, 0, 0]]
    }, 
    {
      "op": "SliceChannel", 
      "name": "lstm_l_1t1_slice", 
      "attrs": {"num_outputs": "4"}, 
      "inputs": [[141, 0, 0]]
    }, 
    {
      "op": "Activation", 
      "name": "lstm_l_1t1_o", 
      "attrs": {"act_type": "sigmoid"}, 
      "inputs": [[142, 3, 0]]
    }, 
    {
      "op": "Activation", 
      "name": "lstm_l_1t1_f", 
      "attrs": {"act_type": "sigmoid"}, 
      "inputs": [[142, 1, 0]]
    }, 
    {
      "op": "ones_like", 
      "name": "ones_like107", 
      "inputs": [[101, 0, 0]]
    }, 
    {
      "op": "Dropout", 
      "name": "dropout103", 
      "attrs": {"p": "0.1"}, 
      "inputs": [[145, 0, 0]]
    }, 
    {
      "op": "where", 
      "name": "where234", 
      "inputs": [[146, 0, 0], [101, 0, 0], [96, 0, 0]]
    }, 
    {
      "op": "where", 
      "name": "where240", 
      "inputs": [[36, 730, 0], [95, 0, 0], [147, 0, 0]]
    }, 
    {
      "op": "elemwise_mul", 
      "name": "_mul399", 
      "inputs": [[144, 0, 0], [148, 0, 0]]
    }, 
    {
      "op": "Activation", 
      "name": "lstm_l_1t1_i", 
      "attrs": {"act_type": "sigmoid"}, 
      "inputs": [[142, 0, 0]]
    }, 
    {
      "op": "Activation", 
      "name": "lstm_l_1t1_c", 
      "attrs": {"act_type": "tanh"}, 
      "inputs": [[142, 2, 0]]
    }, 
    {
      "op": "elemwise_mul", 
      "name": "_mul400", 
      "inputs": [[150, 0, 0], [151, 0, 0]]
    }, 
    {
      "op": "elemwise_add", 
      "name": "lstm_l_1t1_state", 
      "inputs": [[149, 0, 0], [152, 0, 0]]
    }, 
    {
      "op": "Activation", 
      "name": "activation105", 
      "attrs": {"act_type": "tanh"}, 
      "inputs": [[153, 0, 0]]
    }, 
    {
      "op": "elemwise_mul", 
      "name": "lstm_l_1t1_out", 
      "inputs": [[143, 0, 0], [154, 0, 0]]
    }, 
    {
      "op": "elemwise_add", 
      "name": "lstm_l_1t1_out_plus_residual", 
      "inputs": [[155, 0, 0], [134, 0, 0]]
    }, 
    {
      "op": "FullyConnected", 
      "name": "fullyconnected78", 
      "attrs": {"num_hidden": "1"}, 
      "inputs": [[156, 0, 0], [105, 0, 0], [106, 0, 0]]
    }, 
    {
      "op": "elemwise_mul", 
      "name": "_mul407", 
      "inputs": [[157, 0, 0], [30, 0, 0]]
    }, 
    {
      "op": "where", 
      "name": "where245", 
      "inputs": [[36, 730, 0], [57, 0, 0], [158, 0, 0]]
    }, 
    {
      "op": "where", 
      "name": "where246", 
      "inputs": [[15, 730, 0], [10, 730, 0], [159, 0, 0]]
    }, 
    {
      "op": "Concat", 
      "name": "concat63", 
      "attrs": {
        "dim": "1", 
        "num_args": "27"
      }, 
      "inputs": [
        [160, 0, 0], 
        [110, 0, 0], 
        [10, 728, 0], 
        [10, 727, 0], 
        [10, 726, 0], 
        [10, 725, 0], 
        [10, 724, 0], 
        [10, 723, 0], 
        [10, 718, 0], 
        [10, 717, 0], 
        [10, 716, 0], 
        [10, 711, 0], 
        [10, 710, 0], 
        [10, 709, 0], 
        [10, 704, 0], 
        [10, 703, 0], 
        [10, 702, 0], 
        [10, 701, 0], 
        [10, 700, 0], 
        [10, 675, 0], 
        [10, 647, 0], 
        [10, 368, 0], 
        [10, 367, 0], 
        [10, 366, 0], 
        [10, 4, 0], 
        [10, 3, 0], 
        [10, 2, 0]
      ]
    }, 
    {
      "op": "broadcast_div", 
      "name": "broadcast_div29", 
      "inputs": [[161, 0, 0], [30, 0, 0]]
    }, 
    {
      "op": "Concat", 
      "name": "concat64", 
      "attrs": {
        "dim": "1", 
        "num_args": "3"
      }, 
      "inputs": [[39, 731, 0], [32, 0, 0], [162, 0, 0]]
    }, 
    {
      "op": "FullyConnected", 
      "name": "lstm_l_0t2_i2h", 
      "attrs": {"num_hidden": "160"}, 
      "inputs": [[163, 0, 0], [62, 0, 0], [63, 0, 0]]
    }, 
    {
      "op": "ones_like", 
      "name": "ones_like108", 
      "inputs": [[134, 0, 0]]
    }, 
    {
      "op": "Dropout", 
      "name": "dropout104", 
      "attrs": {"p": "0.1"}, 
      "inputs": [[165, 0, 0]]
    }, 
    {
      "op": "where", 
      "name": "where241", 
      "inputs": [[166, 0, 0], [134, 0, 0], [118, 0, 0]]
    }, 
    {
      "op": "where", 
      "name": "where247", 
      "inputs": [[36, 731, 0], [65, 0, 0], [167, 0, 0]]
    }, 
    {
      "op": "FullyConnected", 
      "name": "lstm_l_0t2_h2h", 
      "attrs": {"num_hidden": "160"}, 
      "inputs": [[168, 0, 0], [67, 0, 0], [68, 0, 0]]
    }, 
    {
      "op": "elemwise_add", 
      "name": "_plus108", 
      "inputs": [[164, 0, 0], [169, 0, 0]]
    }, 
    {
      "op": "SliceChannel", 
      "name": "lstm_l_0t2_slice", 
      "attrs": {"num_outputs": "4"}, 
      "inputs": [[170, 0, 0]]
    }, 
    {
      "op": "Activation", 
      "name": "lstm_l_0t2_o", 
      "attrs": {"act_type": "sigmoid"}, 
      "inputs": [[171, 3, 0]]
    }, 
    {
      "op": "Activation", 
      "name": "lstm_l_0t2_f", 
      "attrs": {"act_type": "sigmoid"}, 
      "inputs": [[171, 1, 0]]
    }, 
    {
      "op": "ones_like", 
      "name": "ones_like109", 
      "inputs": [[132, 0, 0]]
    }, 
    {
      "op": "Dropout", 
      "name": "dropout105", 
      "attrs": {"p": "0.1"}, 
      "inputs": [[174, 0, 0]]
    }, 
    {
      "op": "where", 
      "name": "where242", 
      "inputs": [[175, 0, 0], [132, 0, 0], [127, 0, 0]]
    }, 
    {
      "op": "where", 
      "name": "where248", 
      "inputs": [[36, 731, 0], [74, 0, 0], [176, 0, 0]]
    }, 
    {
      "op": "elemwise_mul", 
      "name": "_mul412", 
      "inputs": [[173, 0, 0], [177, 0, 0]]
    }, 
    {
      "op": "Activation", 
      "name": "lstm_l_0t2_i", 
      "attrs": {"act_type": "sigmoid"}, 
      "inputs": [[171, 0, 0]]
    }, 
    {
      "op": "Activation", 
      "name": "lstm_l_0t2_c", 
      "attrs": {"act_type": "tanh"}, 
      "inputs": [[171, 2, 0]]
    }, 
    {
      "op": "elemwise_mul", 
      "name": "_mul413", 
      "inputs": [[179, 0, 0], [180, 0, 0]]
    }, 
    {
      "op": "elemwise_add", 
      "name": "lstm_l_0t2_state", 
      "inputs": [[178, 0, 0], [181, 0, 0]]
    }, 
    {
      "op": "Activation", 
      "name": "activation108", 
      "attrs": {"act_type": "tanh"}, 
      "inputs": [[182, 0, 0]]
    }, 
    {
      "op": "elemwise_mul", 
      "name": "lstm_l_0t2_out", 
      "inputs": [[172, 0, 0], [183, 0, 0]]
    }, 
    {
      "op": "FullyConnected", 
      "name": "lstm_l_1t2_i2h", 
      "attrs": {"num_hidden": "160"}, 
      "inputs": [[184, 0, 0], [83, 0, 0], [84, 0, 0]]
    }, 
    {
      "op": "ones_like", 
      "name": "ones_like110", 
      "inputs": [[155, 0, 0]]
    }, 
    {
      "op": "Dropout", 
      "name": "dropout106", 
      "attrs": {"p": "0.1"}, 
      "inputs": [[186, 0, 0]]
    }, 
    {
      "op": "where", 
      "name": "where243", 
      "inputs": [[187, 0, 0], [155, 0, 0], [139, 0, 0]]
    }, 
    {
      "op": "where", 
      "name": "where249", 
      "inputs": [[36, 731, 0], [86, 0, 0], [188, 0, 0]]
    }, 
    {
      "op": "FullyConnected", 
      "name": "lstm_l_1t2_h2h", 
      "attrs": {"num_hidden": "160"}, 
      "inputs": [[189, 0, 0], [88, 0, 0], [89, 0, 0]]
    }, 
    {
      "op": "elemwise_add", 
      "name": "_plus109", 
      "inputs": [[185, 0, 0], [190, 0, 0]]
    }, 
    {
      "op": "SliceChannel", 
      "name": "lstm_l_1t2_slice", 
      "attrs": {"num_outputs": "4"}, 
      "inputs": [[191, 0, 0]]
    }, 
    {
      "op": "Activation", 
      "name": "lstm_l_1t2_o", 
      "attrs": {"act_type": "sigmoid"}, 
      "inputs": [[192, 3, 0]]
    }, 
    {
      "op": "Activation", 
      "name": "lstm_l_1t2_f", 
      "attrs": {"act_type": "sigmoid"}, 
      "inputs": [[192, 1, 0]]
    }, 
    {
      "op": "ones_like", 
      "name": "ones_like111", 
      "inputs": [[153, 0, 0]]
    }, 
    {
      "op": "Dropout", 
      "name": "dropout107", 
      "attrs": {"p": "0.1"}, 
      "inputs": [[195, 0, 0]]
    }, 
    {
      "op": "where", 
      "name": "where244", 
      "inputs": [[196, 0, 0], [153, 0, 0], [148, 0, 0]]
    }, 
    {
      "op": "where", 
      "name": "where250", 
      "inputs": [[36, 731, 0], [95, 0, 0], [197, 0, 0]]
    }, 
    {
      "op": "elemwise_mul", 
      "name": "_mul414", 
      "inputs": [[194, 0, 0], [198, 0, 0]]
    }, 
    {
      "op": "Activation", 
      "name": "lstm_l_1t2_i", 
      "attrs": {"act_type": "sigmoid"}, 
      "inputs": [[192, 0, 0]]
    }, 
    {
      "op": "Activation", 
      "name": "lstm_l_1t2_c", 
      "attrs": {"act_type": "tanh"}, 
      "inputs": [[192, 2, 0]]
    }, 
    {
      "op": "elemwise_mul", 
      "name": "_mul415", 
      "inputs": [[200, 0, 0], [201, 0, 0]]
    }, 
    {
      "op": "elemwise_add", 
      "name": "lstm_l_1t2_state", 
      "inputs": [[199, 0, 0], [202, 0, 0]]
    }, 
    {
      "op": "Activation", 
      "name": "activation109", 
      "attrs": {"act_type": "tanh"}, 
      "inputs": [[203, 0, 0]]
    }, 
    {
      "op": "elemwise_mul", 
      "name": "lstm_l_1t2_out", 
      "inputs": [[193, 0, 0], [204, 0, 0]]
    }, 
    {
      "op": "elemwise_add", 
      "name": "lstm_l_1t2_out_plus_residual", 
      "inputs": [[205, 0, 0], [184, 0, 0]]
    }, 
    {
      "op": "FullyConnected", 
      "name": "fullyconnected81", 
      "attrs": {"num_hidden": "1"}, 
      "inputs": [[206, 0, 0], [105, 0, 0], [106, 0, 0]]
    }, 
    {
      "op": "elemwise_mul", 
      "name": "_mul422", 
      "inputs": [[207, 0, 0], [30, 0, 0]]
    }, 
    {
      "op": "where", 
      "name": "where255", 
      "inputs": [[36, 731, 0], [56, 0, 0], [208, 0, 0]]
    }, 
    {
      "op": "where", 
      "name": "where256", 
      "inputs": [[15, 731, 0], [10, 731, 0], [209, 0, 0]]
    }, 
    {
      "op": "Concat", 
      "name": "concat65", 
      "attrs": {
        "dim": "1", 
        "num_args": "27"
      }, 
      "inputs": [
        [210, 0, 0], 
        [160, 0, 0], 
        [110, 0, 0], 
        [10, 728, 0], 
        [10, 727, 0], 
        [10, 726, 0], 
        [10, 725, 0], 
        [10, 724, 0], 
        [10, 719, 0], 
        [10, 718, 0], 
        [10, 717, 0], 
        [10, 712, 0], 
        [10, 711, 0], 
        [10, 710, 0], 
        [10, 705, 0], 
        [10, 704, 0], 
        [10, 703, 0], 
        [10, 702, 0], 
        [10, 701, 0], 
        [10, 676, 0], 
        [10, 648, 0], 
        [10, 369, 0], 
        [10, 368, 0], 
        [10, 367, 0], 
        [10, 5, 0], 
        [10, 4, 0], 
        [10, 3, 0]
      ]
    }, 
    {
      "op": "broadcast_div", 
      "name": "broadcast_div30", 
      "inputs": [[211, 0, 0], [30, 0, 0]]
    }, 
    {
      "op": "Concat", 
      "name": "concat66", 
      "attrs": {
        "dim": "1", 
        "num_args": "3"
      }, 
      "inputs": [[39, 732, 0], [32, 0, 0], [212, 0, 0]]
    }, 
    {
      "op": "FullyConnected", 
      "name": "lstm_l_0t3_i2h", 
      "attrs": {"num_hidden": "160"}, 
      "inputs": [[213, 0, 0], [62, 0, 0], [63, 0, 0]]
    }, 
    {
      "op": "ones_like", 
      "name": "ones_like112", 
      "inputs": [[184, 0, 0]]
    }, 
    {
      "op": "Dropout", 
      "name": "dropout108", 
      "attrs": {"p": "0.1"}, 
      "inputs": [[215, 0, 0]]
    }, 
    {
      "op": "where", 
      "name": "where251", 
      "inputs": [[216, 0, 0], [184, 0, 0], [168, 0, 0]]
    }, 
    {
      "op": "where", 
      "name": "where257", 
      "inputs": [[36, 732, 0], [65, 0, 0], [217, 0, 0]]
    }, 
    {
      "op": "FullyConnected", 
      "name": "lstm_l_0t3_h2h", 
      "attrs": {"num_hidden": "160"}, 
      "inputs": [[218, 0, 0], [67, 0, 0], [68, 0, 0]]
    }, 
    {
      "op": "elemwise_add", 
      "name": "_plus112", 
      "inputs": [[214, 0, 0], [219, 0, 0]]
    }, 
    {
      "op": "SliceChannel", 
      "name": "lstm_l_0t3_slice", 
      "attrs": {"num_outputs": "4"}, 
      "inputs": [[220, 0, 0]]
    }, 
    {
      "op": "Activation", 
      "name": "lstm_l_0t3_o", 
      "attrs": {"act_type": "sigmoid"}, 
      "inputs": [[221, 3, 0]]
    }, 
    {
      "op": "Activation", 
      "name": "lstm_l_0t3_f", 
      "attrs": {"act_type": "sigmoid"}, 
      "inputs": [[221, 1, 0]]
    }, 
    {
      "op": "ones_like", 
      "name": "ones_like113", 
      "inputs": [[182, 0, 0]]
    }, 
    {
      "op": "Dropout", 
      "name": "dropout109", 
      "attrs": {"p": "0.1"}, 
      "inputs": [[224, 0, 0]]
    }, 
    {
      "op": "where", 
      "name": "where252", 
      "inputs": [[225, 0, 0], [182, 0, 0], [177, 0, 0]]
    }, 
    {
      "op": "where", 
      "name": "where258", 
      "inputs": [[36, 732, 0], [74, 0, 0], [226, 0, 0]]
    }, 
    {
      "op": "elemwise_mul", 
      "name": "_mul427", 
      "inputs": [[223, 0, 0], [227, 0, 0]]
    }, 
    {
      "op": "Activation", 
      "name": "lstm_l_0t3_i", 
      "attrs": {"act_type": "sigmoid"}, 
      "inputs": [[221, 0, 0]]
    }, 
    {
      "op": "Activation", 
      "name": "lstm_l_0t3_c", 
      "attrs": {"act_type": "tanh"}, 
      "inputs": [[221, 2, 0]]
    }, 
    {
      "op": "elemwise_mul", 
      "name": "_mul428", 
      "inputs": [[229, 0, 0], [230, 0, 0]]
    }, 
    {
      "op": "elemwise_add", 
      "name": "lstm_l_0t3_state", 
      "inputs": [[228, 0, 0], [231, 0, 0]]
    }, 
    {
      "op": "Activation", 
      "name": "activation112", 
      "attrs": {"act_type": "tanh"}, 
      "inputs": [[232, 0, 0]]
    }, 
    {
      "op": "elemwise_mul", 
      "name": "lstm_l_0t3_out", 
      "inputs": [[222, 0, 0], [233, 0, 0]]
    }, 
    {
      "op": "FullyConnected", 
      "name": "lstm_l_1t3_i2h", 
      "attrs": {"num_hidden": "160"}, 
      "inputs": [[234, 0, 0], [83, 0, 0], [84, 0, 0]]
    }, 
    {
      "op": "ones_like", 
      "name": "ones_like114", 
      "inputs": [[205, 0, 0]]
    }, 
    {
      "op": "Dropout", 
      "name": "dropout110", 
      "attrs": {"p": "0.1"}, 
      "inputs": [[236, 0, 0]]
    }, 
    {
      "op": "where", 
      "name": "where253", 
      "inputs": [[237, 0, 0], [205, 0, 0], [189, 0, 0]]
    }, 
    {
      "op": "where", 
      "name": "where259", 
      "inputs": [[36, 732, 0], [86, 0, 0], [238, 0, 0]]
    }, 
    {
      "op": "FullyConnected", 
      "name": "lstm_l_1t3_h2h", 
      "attrs": {"num_hidden": "160"}, 
      "inputs": [[239, 0, 0], [88, 0, 0], [89, 0, 0]]
    }, 
    {
      "op": "elemwise_add", 
      "name": "_plus113", 
      "inputs": [[235, 0, 0], [240, 0, 0]]
    }, 
    {
      "op": "SliceChannel", 
      "name": "lstm_l_1t3_slice", 
      "attrs": {"num_outputs": "4"}, 
      "inputs": [[241, 0, 0]]
    }, 
    {
      "op": "Activation", 
      "name": "lstm_l_1t3_o", 
      "attrs": {"act_type": "sigmoid"}, 
      "inputs": [[242, 3, 0]]
    }, 
    {
      "op": "Activation", 
      "name": "lstm_l_1t3_f", 
      "attrs": {"act_type": "sigmoid"}, 
      "inputs": [[242, 1, 0]]
    }, 
    {
      "op": "ones_like", 
      "name": "ones_like115", 
      "inputs": [[203, 0, 0]]
    }, 
    {
      "op": "Dropout", 
      "name": "dropout111", 
      "attrs": {"p": "0.1"}, 
      "inputs": [[245, 0, 0]]
    }, 
    {
      "op": "where", 
      "name": "where254", 
      "inputs": [[246, 0, 0], [203, 0, 0], [198, 0, 0]]
    }, 
    {
      "op": "where", 
      "name": "where260", 
      "inputs": [[36, 732, 0], [95, 0, 0], [247, 0, 0]]
    }, 
    {
      "op": "elemwise_mul", 
      "name": "_mul429", 
      "inputs": [[244, 0, 0], [248, 0, 0]]
    }, 
    {
      "op": "Activation", 
      "name": "lstm_l_1t3_i", 
      "attrs": {"act_type": "sigmoid"}, 
      "inputs": [[242, 0, 0]]
    }, 
    {
      "op": "Activation", 
      "name": "lstm_l_1t3_c", 
      "attrs": {"act_type": "tanh"}, 
      "inputs": [[242, 2, 0]]
    }, 
    {
      "op": "elemwise_mul", 
      "name": "_mul430", 
      "inputs": [[250, 0, 0], [251, 0, 0]]
    }, 
    {
      "op": "elemwise_add", 
      "name": "lstm_l_1t3_state", 
      "inputs": [[249, 0, 0], [252, 0, 0]]
    }, 
    {
      "op": "Activation", 
      "name": "activation113", 
      "attrs": {"act_type": "tanh"}, 
      "inputs": [[253, 0, 0]]
    }, 
    {
      "op": "elemwise_mul", 
      "name": "lstm_l_1t3_out", 
      "inputs": [[243, 0, 0], [254, 0, 0]]
    }, 
    {
      "op": "elemwise_add", 
      "name": "lstm_l_1t3_out_plus_residual", 
      "inputs": [[255, 0, 0], [234, 0, 0]]
    }, 
    {
      "op": "FullyConnected", 
      "name": "fullyconnected84", 
      "attrs": {"num_hidden": "1"}, 
      "inputs": [[256, 0, 0], [105, 0, 0], [106, 0, 0]]
    }, 
    {
      "op": "elemwise_mul", 
      "name": "_mul437", 
      "inputs": [[257, 0, 0], [30, 0, 0]]
    }, 
    {
      "op": "where", 
      "name": "where265", 
      "inputs": [[36, 732, 0], [55, 0, 0], [258, 0, 0]]
    }, 
    {
      "op": "where", 
      "name": "where266", 
      "inputs": [[15, 732, 0], [10, 732, 0], [259, 0, 0]]
    }, 
    {
      "op": "Concat", 
      "name": "concat67", 
      "attrs": {
        "dim": "1", 
        "num_args": "27"
      }, 
      "inputs": [
        [260, 0, 0], 
        [210, 0, 0], 
        [160, 0, 0], 
        [110, 0, 0], 
        [10, 728, 0], 
        [10, 727, 0], 
        [10, 726, 0], 
        [10, 725, 0], 
        [10, 720, 0], 
        [10, 719, 0], 
        [10, 718, 0], 
        [10, 713, 0], 
        [10, 712, 0], 
        [10, 711, 0], 
        [10, 706, 0], 
        [10, 705, 0], 
        [10, 704, 0], 
        [10, 703, 0], 
        [10, 702, 0], 
        [10, 677, 0], 
        [10, 649, 0], 
        [10, 370, 0], 
        [10, 369, 0], 
        [10, 368, 0], 
        [10, 6, 0], 
        [10, 5, 0], 
        [10, 4, 0]
      ]
    }, 
    {
      "op": "broadcast_div", 
      "name": "broadcast_div31", 
      "inputs": [[261, 0, 0], [30, 0, 0]]
    }, 
    {
      "op": "Concat", 
      "name": "concat68", 
      "attrs": {
        "dim": "1", 
        "num_args": "3"
      }, 
      "inputs": [[39, 733, 0], [32, 0, 0], [262, 0, 0]]
    }, 
    {
      "op": "FullyConnected", 
      "name": "lstm_l_0t4_i2h", 
      "attrs": {"num_hidden": "160"}, 
      "inputs": [[263, 0, 0], [62, 0, 0], [63, 0, 0]]
    }, 
    {
      "op": "ones_like", 
      "name": "ones_like116", 
      "inputs": [[234, 0, 0]]
    }, 
    {
      "op": "Dropout", 
      "name": "dropout112", 
      "attrs": {"p": "0.1"}, 
      "inputs": [[265, 0, 0]]
    }, 
    {
      "op": "where", 
      "name": "where261", 
      "inputs": [[266, 0, 0], [234, 0, 0], [218, 0, 0]]
    }, 
    {
      "op": "where", 
      "name": "where267", 
      "inputs": [[36, 733, 0], [65, 0, 0], [267, 0, 0]]
    }, 
    {
      "op": "FullyConnected", 
      "name": "lstm_l_0t4_h2h", 
      "attrs": {"num_hidden": "160"}, 
      "inputs": [[268, 0, 0], [67, 0, 0], [68, 0, 0]]
    }, 
    {
      "op": "elemwise_add", 
      "name": "_plus116", 
      "inputs": [[264, 0, 0], [269, 0, 0]]
    }, 
    {
      "op": "SliceChannel", 
      "name": "lstm_l_0t4_slice", 
      "attrs": {"num_outputs": "4"}, 
      "inputs": [[270, 0, 0]]
    }, 
    {
      "op": "Activation", 
      "name": "lstm_l_0t4_o", 
      "attrs": {"act_type": "sigmoid"}, 
      "inputs": [[271, 3, 0]]
    }, 
    {
      "op": "Activation", 
      "name": "lstm_l_0t4_f", 
      "attrs": {"act_type": "sigmoid"}, 
      "inputs": [[271, 1, 0]]
    }, 
    {
      "op": "ones_like", 
      "name": "ones_like117", 
      "inputs": [[232, 0, 0]]
    }, 
    {
      "op": "Dropout", 
      "name": "dropout113", 
      "attrs": {"p": "0.1"}, 
      "inputs": [[274, 0, 0]]
    }, 
    {
      "op": "where", 
      "name": "where262", 
      "inputs": [[275, 0, 0], [232, 0, 0], [227, 0, 0]]
    }, 
    {
      "op": "where", 
      "name": "where268", 
      "inputs": [[36, 733, 0], [74, 0, 0], [276, 0, 0]]
    }, 
    {
      "op": "elemwise_mul", 
      "name": "_mul442", 
      "inputs": [[273, 0, 0], [277, 0, 0]]
    }, 
    {
      "op": "Activation", 
      "name": "lstm_l_0t4_i", 
      "attrs": {"act_type": "sigmoid"}, 
      "inputs": [[271, 0, 0]]
    }, 
    {
      "op": "Activation", 
      "name": "lstm_l_0t4_c", 
      "attrs": {"act_type": "tanh"}, 
      "inputs": [[271, 2, 0]]
    }, 
    {
      "op": "elemwise_mul", 
      "name": "_mul443", 
      "inputs": [[279, 0, 0], [280, 0, 0]]
    }, 
    {
      "op": "elemwise_add", 
      "name": "lstm_l_0t4_state", 
      "inputs": [[278, 0, 0], [281, 0, 0]]
    }, 
    {
      "op": "Activation", 
      "name": "activation116", 
      "attrs": {"act_type": "tanh"}, 
      "inputs": [[282, 0, 0]]
    }, 
    {
      "op": "elemwise_mul", 
      "name": "lstm_l_0t4_out", 
      "inputs": [[272, 0, 0], [283, 0, 0]]
    }, 
    {
      "op": "FullyConnected", 
      "name": "lstm_l_1t4_i2h", 
      "attrs": {"num_hidden": "160"}, 
      "inputs": [[284, 0, 0], [83, 0, 0], [84, 0, 0]]
    }, 
    {
      "op": "ones_like", 
      "name": "ones_like118", 
      "inputs": [[255, 0, 0]]
    }, 
    {
      "op": "Dropout", 
      "name": "dropout114", 
      "attrs": {"p": "0.1"}, 
      "inputs": [[286, 0, 0]]
    }, 
    {
      "op": "where", 
      "name": "where263", 
      "inputs": [[287, 0, 0], [255, 0, 0], [239, 0, 0]]
    }, 
    {
      "op": "where", 
      "name": "where269", 
      "inputs": [[36, 733, 0], [86, 0, 0], [288, 0, 0]]
    }, 
    {
      "op": "FullyConnected", 
      "name": "lstm_l_1t4_h2h", 
      "attrs": {"num_hidden": "160"}, 
      "inputs": [[289, 0, 0], [88, 0, 0], [89, 0, 0]]
    }, 
    {
      "op": "elemwise_add", 
      "name": "_plus117", 
      "inputs": [[285, 0, 0], [290, 0, 0]]
    }, 
    {
      "op": "SliceChannel", 
      "name": "lstm_l_1t4_slice", 
      "attrs": {"num_outputs": "4"}, 
      "inputs": [[291, 0, 0]]
    }, 
    {
      "op": "Activation", 
      "name": "lstm_l_1t4_o", 
      "attrs": {"act_type": "sigmoid"}, 
      "inputs": [[292, 3, 0]]
    }, 
    {
      "op": "Activation", 
      "name": "lstm_l_1t4_f", 
      "attrs": {"act_type": "sigmoid"}, 
      "inputs": [[292, 1, 0]]
    }, 
    {
      "op": "ones_like", 
      "name": "ones_like119", 
      "inputs": [[253, 0, 0]]
    }, 
    {
      "op": "Dropout", 
      "name": "dropout115", 
      "attrs": {"p": "0.1"}, 
      "inputs": [[295, 0, 0]]
    }, 
    {
      "op": "where", 
      "name": "where264", 
      "inputs": [[296, 0, 0], [253, 0, 0], [248, 0, 0]]
    }, 
    {
      "op": "where", 
      "name": "where270", 
      "inputs": [[36, 733, 0], [95, 0, 0], [297, 0, 0]]
    }, 
    {
      "op": "elemwise_mul", 
      "name": "_mul444", 
      "inputs": [[294, 0, 0], [298, 0, 0]]
    }, 
    {
      "op": "Activation", 
      "name": "lstm_l_1t4_i", 
      "attrs": {"act_type": "sigmoid"}, 
      "inputs": [[292, 0, 0]]
    }, 
    {
      "op": "Activation", 
      "name": "lstm_l_1t4_c", 
      "attrs": {"act_type": "tanh"}, 
      "inputs": [[292, 2, 0]]
    }, 
    {
      "op": "elemwise_mul", 
      "name": "_mul445", 
      "inputs": [[300, 0, 0], [301, 0, 0]]
    }, 
    {
      "op": "elemwise_add", 
      "name": "lstm_l_1t4_state", 
      "inputs": [[299, 0, 0], [302, 0, 0]]
    }, 
    {
      "op": "Activation", 
      "name": "activation117", 
      "attrs": {"act_type": "tanh"}, 
      "inputs": [[303, 0, 0]]
    }, 
    {
      "op": "elemwise_mul", 
      "name": "lstm_l_1t4_out", 
      "inputs": [[293, 0, 0], [304, 0, 0]]
    }, 
    {
      "op": "elemwise_add", 
      "name": "lstm_l_1t4_out_plus_residual", 
      "inputs": [[305, 0, 0], [284, 0, 0]]
    }, 
    {
      "op": "FullyConnected", 
      "name": "fullyconnected87", 
      "attrs": {"num_hidden": "1"}, 
      "inputs": [[306, 0, 0], [105, 0, 0], [106, 0, 0]]
    }, 
    {
      "op": "elemwise_mul", 
      "name": "_mul452", 
      "inputs": [[307, 0, 0], [30, 0, 0]]
    }, 
    {
      "op": "where", 
      "name": "where275", 
      "inputs": [[36, 733, 0], [54, 0, 0], [308, 0, 0]]
    }, 
    {
      "op": "where", 
      "name": "where276", 
      "inputs": [[15, 733, 0], [10, 733, 0], [309, 0, 0]]
    }, 
    {
      "op": "Concat", 
      "name": "concat69", 
      "attrs": {
        "dim": "1", 
        "num_args": "27"
      }, 
      "inputs": [
        [310, 0, 0], 
        [260, 0, 0], 
        [210, 0, 0], 
        [160, 0, 0], 
        [110, 0, 0], 
        [10, 728, 0], 
        [10, 727, 0], 
        [10, 726, 0], 
        [10, 721, 0], 
        [10, 720, 0], 
        [10, 719, 0], 
        [10, 714, 0], 
        [10, 713, 0], 
        [10, 712, 0], 
        [10, 707, 0], 
        [10, 706, 0], 
        [10, 705, 0], 
        [10, 704, 0], 
        [10, 703, 0], 
        [10, 678, 0], 
        [10, 650, 0], 
        [10, 371, 0], 
        [10, 370, 0], 
        [10, 369, 0], 
        [10, 7, 0], 
        [10, 6, 0], 
        [10, 5, 0]
      ]
    }, 
    {
      "op": "broadcast_div", 
      "name": "broadcast_div32", 
      "inputs": [[311, 0, 0], [30, 0, 0]]
    }, 
    {
      "op": "Concat", 
      "name": "concat70", 
      "attrs": {
        "dim": "1", 
        "num_args": "3"
      }, 
      "inputs": [[39, 734, 0], [32, 0, 0], [312, 0, 0]]
    }, 
    {
      "op": "FullyConnected", 
      "name": "lstm_l_0t5_i2h", 
      "attrs": {"num_hidden": "160"}, 
      "inputs": [[313, 0, 0], [62, 0, 0], [63, 0, 0]]
    }, 
    {
      "op": "ones_like", 
      "name": "ones_like120", 
      "inputs": [[284, 0, 0]]
    }, 
    {
      "op": "Dropout", 
      "name": "dropout116", 
      "attrs": {"p": "0.1"}, 
      "inputs": [[315, 0, 0]]
    }, 
    {
      "op": "where", 
      "name": "where271", 
      "inputs": [[316, 0, 0], [284, 0, 0], [268, 0, 0]]
    }, 
    {
      "op": "where", 
      "name": "where277", 
      "inputs": [[36, 734, 0], [65, 0, 0], [317, 0, 0]]
    }, 
    {
      "op": "FullyConnected", 
      "name": "lstm_l_0t5_h2h", 
      "attrs": {"num_hidden": "160"}, 
      "inputs": [[318, 0, 0], [67, 0, 0], [68, 0, 0]]
    }, 
    {
      "op": "elemwise_add", 
      "name": "_plus120", 
      "inputs": [[314, 0, 0], [319, 0, 0]]
    }, 
    {
      "op": "SliceChannel", 
      "name": "lstm_l_0t5_slice", 
      "attrs": {"num_outputs": "4"}, 
      "inputs": [[320, 0, 0]]
    }, 
    {
      "op": "Activation", 
      "name": "lstm_l_0t5_o", 
      "attrs": {"act_type": "sigmoid"}, 
      "inputs": [[321, 3, 0]]
    }, 
    {
      "op": "Activation", 
      "name": "lstm_l_0t5_f", 
      "attrs": {"act_type": "sigmoid"}, 
      "inputs": [[321, 1, 0]]
    }, 
    {
      "op": "ones_like", 
      "name": "ones_like121", 
      "inputs": [[282, 0, 0]]
    }, 
    {
      "op": "Dropout", 
      "name": "dropout117", 
      "attrs": {"p": "0.1"}, 
      "inputs": [[324, 0, 0]]
    }, 
    {
      "op": "where", 
      "name": "where272", 
      "inputs": [[325, 0, 0], [282, 0, 0], [277, 0, 0]]
    }, 
    {
      "op": "where", 
      "name": "where278", 
      "inputs": [[36, 734, 0], [74, 0, 0], [326, 0, 0]]
    }, 
    {
      "op": "elemwise_mul", 
      "name": "_mul457", 
      "inputs": [[323, 0, 0], [327, 0, 0]]
    }, 
    {
      "op": "Activation", 
      "name": "lstm_l_0t5_i", 
      "attrs": {"act_type": "sigmoid"}, 
      "inputs": [[321, 0, 0]]
    }, 
    {
      "op": "Activation", 
      "name": "lstm_l_0t5_c", 
      "attrs": {"act_type": "tanh"}, 
      "inputs": [[321, 2, 0]]
    }, 
    {
      "op": "elemwise_mul", 
      "name": "_mul458", 
      "inputs": [[329, 0, 0], [330, 0, 0]]
    }, 
    {
      "op": "elemwise_add", 
      "name": "lstm_l_0t5_state", 
      "inputs": [[328, 0, 0], [331, 0, 0]]
    }, 
    {
      "op": "Activation", 
      "name": "activation120", 
      "attrs": {"act_type": "tanh"}, 
      "inputs": [[332, 0, 0]]
    }, 
    {
      "op": "elemwise_mul", 
      "name": "lstm_l_0t5_out", 
      "inputs": [[322, 0, 0], [333, 0, 0]]
    }, 
    {
      "op": "FullyConnected", 
      "name": "lstm_l_1t5_i2h", 
      "attrs": {"num_hidden": "160"}, 
      "inputs": [[334, 0, 0], [83, 0, 0], [84, 0, 0]]
    }, 
    {
      "op": "ones_like", 
      "name": "ones_like122", 
      "inputs": [[305, 0, 0]]
    }, 
    {
      "op": "Dropout", 
      "name": "dropout118", 
      "attrs": {"p": "0.1"}, 
      "inputs": [[336, 0, 0]]
    }, 
    {
      "op": "where", 
      "name": "where273", 
      "inputs": [[337, 0, 0], [305, 0, 0], [289, 0, 0]]
    }, 
    {
      "op": "where", 
      "name": "where279", 
      "inputs": [[36, 734, 0], [86, 0, 0], [338, 0, 0]]
    }, 
    {
      "op": "FullyConnected", 
      "name": "lstm_l_1t5_h2h", 
      "attrs": {"num_hidden": "160"}, 
      "inputs": [[339, 0, 0], [88, 0, 0], [89, 0, 0]]
    }, 
    {
      "op": "elemwise_add", 
      "name": "_plus121", 
      "inputs": [[335, 0, 0], [340, 0, 0]]
    }, 
    {
      "op": "SliceChannel", 
      "name": "lstm_l_1t5_slice", 
      "attrs": {"num_outputs": "4"}, 
      "inputs": [[341, 0, 0]]
    }, 
    {
      "op": "Activation", 
      "name": "lstm_l_1t5_o", 
      "attrs": {"act_type": "sigmoid"}, 
      "inputs": [[342, 3, 0]]
    }, 
    {
      "op": "Activation", 
      "name": "lstm_l_1t5_f", 
      "attrs": {"act_type": "sigmoid"}, 
      "inputs": [[342, 1, 0]]
    }, 
    {
      "op": "ones_like", 
      "name": "ones_like123", 
      "inputs": [[303, 0, 0]]
    }, 
    {
      "op": "Dropout", 
      "name": "dropout119", 
      "attrs": {"p": "0.1"}, 
      "inputs": [[345, 0, 0]]
    }, 
    {
      "op": "where", 
      "name": "where274", 
      "inputs": [[346, 0, 0], [303, 0, 0], [298, 0, 0]]
    }, 
    {
      "op": "where", 
      "name": "where280", 
      "inputs": [[36, 734, 0], [95, 0, 0], [347, 0, 0]]
    }, 
    {
      "op": "elemwise_mul", 
      "name": "_mul459", 
      "inputs": [[344, 0, 0], [348, 0, 0]]
    }, 
    {
      "op": "Activation", 
      "name": "lstm_l_1t5_i", 
      "attrs": {"act_type": "sigmoid"}, 
      "inputs": [[342, 0, 0]]
    }, 
    {
      "op": "Activation", 
      "name": "lstm_l_1t5_c", 
      "attrs": {"act_type": "tanh"}, 
      "inputs": [[342, 2, 0]]
    }, 
    {
      "op": "elemwise_mul", 
      "name": "_mul460", 
      "inputs": [[350, 0, 0], [351, 0, 0]]
    }, 
    {
      "op": "elemwise_add", 
      "name": "lstm_l_1t5_state", 
      "inputs": [[349, 0, 0], [352, 0, 0]]
    }, 
    {
      "op": "Activation", 
      "name": "activation121", 
      "attrs": {"act_type": "tanh"}, 
      "inputs": [[353, 0, 0]]
    }, 
    {
      "op": "elemwise_mul", 
      "name": "lstm_l_1t5_out", 
      "inputs": [[343, 0, 0], [354, 0, 0]]
    }, 
    {
      "op": "elemwise_add", 
      "name": "lstm_l_1t5_out_plus_residual", 
      "inputs": [[355, 0, 0], [334, 0, 0]]
    }, 
    {
      "op": "FullyConnected", 
      "name": "fullyconnected90", 
      "attrs": {"num_hidden": "1"}, 
      "inputs": [[356, 0, 0], [105, 0, 0], [106, 0, 0]]
    }, 
    {
      "op": "elemwise_mul", 
      "name": "_mul467", 
      "inputs": [[357, 0, 0], [30, 0, 0]]
    }, 
    {
      "op": "where", 
      "name": "where285", 
      "inputs": [[36, 734, 0], [53, 0, 0], [358, 0, 0]]
    }, 
    {
      "op": "where", 
      "name": "where286", 
      "inputs": [[15, 734, 0], [10, 734, 0], [359, 0, 0]]
    }, 
    {
      "op": "Concat", 
      "name": "concat71", 
      "attrs": {
        "dim": "1", 
        "num_args": "27"
      }, 
      "inputs": [
        [360, 0, 0], 
        [310, 0, 0], 
        [260, 0, 0], 
        [210, 0, 0], 
        [160, 0, 0], 
        [110, 0, 0], 
        [10, 728, 0], 
        [10, 727, 0], 
        [10, 722, 0], 
        [10, 721, 0], 
        [10, 720, 0], 
        [10, 715, 0], 
        [10, 714, 0], 
        [10, 713, 0], 
        [10, 708, 0], 
        [10, 707, 0], 
        [10, 706, 0], 
        [10, 705, 0], 
        [10, 704, 0], 
        [10, 679, 0], 
        [10, 651, 0], 
        [10, 372, 0], 
        [10, 371, 0], 
        [10, 370, 0], 
        [10, 8, 0], 
        [10, 7, 0], 
        [10, 6, 0]
      ]
    }, 
    {
      "op": "broadcast_div", 
      "name": "broadcast_div33", 
      "inputs": [[361, 0, 0], [30, 0, 0]]
    }, 
    {
      "op": "Concat", 
      "name": "concat72", 
      "attrs": {
        "dim": "1", 
        "num_args": "3"
      }, 
      "inputs": [[39, 735, 0], [32, 0, 0], [362, 0, 0]]
    }, 
    {
      "op": "FullyConnected", 
      "name": "lstm_l_0t6_i2h", 
      "attrs": {"num_hidden": "160"}, 
      "inputs": [[363, 0, 0], [62, 0, 0], [63, 0, 0]]
    }, 
    {
      "op": "ones_like", 
      "name": "ones_like124", 
      "inputs": [[334, 0, 0]]
    }, 
    {
      "op": "Dropout", 
      "name": "dropout120", 
      "attrs": {"p": "0.1"}, 
      "inputs": [[365, 0, 0]]
    }, 
    {
      "op": "where", 
      "name": "where281", 
      "inputs": [[366, 0, 0], [334, 0, 0], [318, 0, 0]]
    }, 
    {
      "op": "where", 
      "name": "where287", 
      "inputs": [[36, 735, 0], [65, 0, 0], [367, 0, 0]]
    }, 
    {
      "op": "FullyConnected", 
      "name": "lstm_l_0t6_h2h", 
      "attrs": {"num_hidden": "160"}, 
      "inputs": [[368, 0, 0], [67, 0, 0], [68, 0, 0]]
    }, 
    {
      "op": "elemwise_add", 
      "name": "_plus124", 
      "inputs": [[364, 0, 0], [369, 0, 0]]
    }, 
    {
      "op": "SliceChannel", 
      "name": "lstm_l_0t6_slice", 
      "attrs": {"num_outputs": "4"}, 
      "inputs": [[370, 0, 0]]
    }, 
    {
      "op": "Activation", 
      "name": "lstm_l_0t6_o", 
      "attrs": {"act_type": "sigmoid"}, 
      "inputs": [[371, 3, 0]]
    }, 
    {
      "op": "Activation", 
      "name": "lstm_l_0t6_f", 
      "attrs": {"act_type": "sigmoid"}, 
      "inputs": [[371, 1, 0]]
    }, 
    {
      "op": "ones_like", 
      "name": "ones_like125", 
      "inputs": [[332, 0, 0]]
    }, 
    {
      "op": "Dropout", 
      "name": "dropout121", 
      "attrs": {"p": "0.1"}, 
      "inputs": [[374, 0, 0]]
    }, 
    {
      "op": "where", 
      "name": "where282", 
      "inputs": [[375, 0, 0], [332, 0, 0], [327, 0, 0]]
    }, 
    {
      "op": "where", 
      "name": "where288", 
      "inputs": [[36, 735, 0], [74, 0, 0], [376, 0, 0]]
    }, 
    {
      "op": "elemwise_mul", 
      "name": "_mul472", 
      "inputs": [[373, 0, 0], [377, 0, 0]]
    }, 
    {
      "op": "Activation", 
      "name": "lstm_l_0t6_i", 
      "attrs": {"act_type": "sigmoid"}, 
      "inputs": [[371, 0, 0]]
    }, 
    {
      "op": "Activation", 
      "name": "lstm_l_0t6_c", 
      "attrs": {"act_type": "tanh"}, 
      "inputs": [[371, 2, 0]]
    }, 
    {
      "op": "elemwise_mul", 
      "name": "_mul473", 
      "inputs": [[379, 0, 0], [380, 0, 0]]
    }, 
    {
      "op": "elemwise_add", 
      "name": "lstm_l_0t6_state", 
      "inputs": [[378, 0, 0], [381, 0, 0]]
    }, 
    {
      "op": "Activation", 
      "name": "activation124", 
      "attrs": {"act_type": "tanh"}, 
      "inputs": [[382, 0, 0]]
    }, 
    {
      "op": "elemwise_mul", 
      "name": "lstm_l_0t6_out", 
      "inputs": [[372, 0, 0], [383, 0, 0]]
    }, 
    {
      "op": "FullyConnected", 
      "name": "lstm_l_1t6_i2h", 
      "attrs": {"num_hidden": "160"}, 
      "inputs": [[384, 0, 0], [83, 0, 0], [84, 0, 0]]
    }, 
    {
      "op": "ones_like", 
      "name": "ones_like126", 
      "inputs": [[355, 0, 0]]
    }, 
    {
      "op": "Dropout", 
      "name": "dropout122", 
      "attrs": {"p": "0.1"}, 
      "inputs": [[386, 0, 0]]
    }, 
    {
      "op": "where", 
      "name": "where283", 
      "inputs": [[387, 0, 0], [355, 0, 0], [339, 0, 0]]
    }, 
    {
      "op": "where", 
      "name": "where289", 
      "inputs": [[36, 735, 0], [86, 0, 0], [388, 0, 0]]
    }, 
    {
      "op": "FullyConnected", 
      "name": "lstm_l_1t6_h2h", 
      "attrs": {"num_hidden": "160"}, 
      "inputs": [[389, 0, 0], [88, 0, 0], [89, 0, 0]]
    }, 
    {
      "op": "elemwise_add", 
      "name": "_plus125", 
      "inputs": [[385, 0, 0], [390, 0, 0]]
    }, 
    {
      "op": "SliceChannel", 
      "name": "lstm_l_1t6_slice", 
      "attrs": {"num_outputs": "4"}, 
      "inputs": [[391, 0, 0]]
    }, 
    {
      "op": "Activation", 
      "name": "lstm_l_1t6_o", 
      "attrs": {"act_type": "sigmoid"}, 
      "inputs": [[392, 3, 0]]
    }, 
    {
      "op": "Activation", 
      "name": "lstm_l_1t6_f", 
      "attrs": {"act_type": "sigmoid"}, 
      "inputs": [[392, 1, 0]]
    }, 
    {
      "op": "ones_like", 
      "name": "ones_like127", 
      "inputs": [[353, 0, 0]]
    }, 
    {
      "op": "Dropout", 
      "name": "dropout123", 
      "attrs": {"p": "0.1"}, 
      "inputs": [[395, 0, 0]]
    }, 
    {
      "op": "where", 
      "name": "where284", 
      "inputs": [[396, 0, 0], [353, 0, 0], [348, 0, 0]]
    }, 
    {
      "op": "where", 
      "name": "where290", 
      "inputs": [[36, 735, 0], [95, 0, 0], [397, 0, 0]]
    }, 
    {
      "op": "elemwise_mul", 
      "name": "_mul474", 
      "inputs": [[394, 0, 0], [398, 0, 0]]
    }, 
    {
      "op": "Activation", 
      "name": "lstm_l_1t6_i", 
      "attrs": {"act_type": "sigmoid"}, 
      "inputs": [[392, 0, 0]]
    }, 
    {
      "op": "Activation", 
      "name": "lstm_l_1t6_c", 
      "attrs": {"act_type": "tanh"}, 
      "inputs": [[392, 2, 0]]
    }, 
    {
      "op": "elemwise_mul", 
      "name": "_mul475", 
      "inputs": [[400, 0, 0], [401, 0, 0]]
    }, 
    {
      "op": "elemwise_add", 
      "name": "lstm_l_1t6_state", 
      "inputs": [[399, 0, 0], [402, 0, 0]]
    }, 
    {
      "op": "Activation", 
      "name": "activation125", 
      "attrs": {"act_type": "tanh"}, 
      "inputs": [[403, 0, 0]]
    }, 
    {
      "op": "elemwise_mul", 
      "name": "lstm_l_1t6_out", 
      "inputs": [[393, 0, 0], [404, 0, 0]]
    }, 
    {
      "op": "elemwise_add", 
      "name": "lstm_l_1t6_out_plus_residual", 
      "inputs": [[405, 0, 0], [384, 0, 0]]
    }, 
    {
      "op": "FullyConnected", 
      "name": "fullyconnected93", 
      "attrs": {"num_hidden": "1"}, 
      "inputs": [[406, 0, 0], [105, 0, 0], [106, 0, 0]]
    }, 
    {
      "op": "elemwise_mul", 
      "name": "_mul482", 
      "inputs": [[407, 0, 0], [30, 0, 0]]
    }, 
    {
      "op": "where", 
      "name": "where295", 
      "inputs": [[36, 735, 0], [52, 0, 0], [408, 0, 0]]
    }, 
    {
      "op": "where", 
      "name": "where296", 
      "inputs": [[15, 735, 0], [10, 735, 0], [409, 0, 0]]
    }, 
    {
      "op": "Concat", 
      "name": "concat73", 
      "attrs": {
        "dim": "1", 
        "num_args": "27"
      }, 
      "inputs": [
        [410, 0, 0], 
        [360, 0, 0], 
        [310, 0, 0], 
        [260, 0, 0], 
        [210, 0, 0], 
        [160, 0, 0], 
        [110, 0, 0], 
        [10, 728, 0], 
        [10, 723, 0], 
        [10, 722, 0], 
        [10, 721, 0], 
        [10, 716, 0], 
        [10, 715, 0], 
        [10, 714, 0], 
        [10, 709, 0], 
        [10, 708, 0], 
        [10, 707, 0], 
        [10, 706, 0], 
        [10, 705, 0], 
        [10, 680, 0], 
        [10, 652, 0], 
        [10, 373, 0], 
        [10, 372, 0], 
        [10, 371, 0], 
        [10, 9, 0], 
        [10, 8, 0], 
        [10, 7, 0]
      ]
    }, 
    {
      "op": "broadcast_div", 
      "name": "broadcast_div34", 
      "inputs": [[411, 0, 0], [30, 0, 0]]
    }, 
    {
      "op": "Concat", 
      "name": "concat74", 
      "attrs": {
        "dim": "1", 
        "num_args": "3"
      }, 
      "inputs": [[39, 736, 0], [32, 0, 0], [412, 0, 0]]
    }, 
    {
      "op": "FullyConnected", 
      "name": "lstm_l_0t7_i2h", 
      "attrs": {"num_hidden": "160"}, 
      "inputs": [[413, 0, 0], [62, 0, 0], [63, 0, 0]]
    }, 
    {
      "op": "ones_like", 
      "name": "ones_like128", 
      "inputs": [[384, 0, 0]]
    }, 
    {
      "op": "Dropout", 
      "name": "dropout124", 
      "attrs": {"p": "0.1"}, 
      "inputs": [[415, 0, 0]]
    }, 
    {
      "op": "where", 
      "name": "where291", 
      "inputs": [[416, 0, 0], [384, 0, 0], [368, 0, 0]]
    }, 
    {
      "op": "where", 
      "name": "where297", 
      "inputs": [[36, 736, 0], [65, 0, 0], [417, 0, 0]]
    }, 
    {
      "op": "FullyConnected", 
      "name": "lstm_l_0t7_h2h", 
      "attrs": {"num_hidden": "160"}, 
      "inputs": [[418, 0, 0], [67, 0, 0], [68, 0, 0]]
    }, 
    {
      "op": "elemwise_add", 
      "name": "_plus128", 
      "inputs": [[414, 0, 0], [419, 0, 0]]
    }, 
    {
      "op": "SliceChannel", 
      "name": "lstm_l_0t7_slice", 
      "attrs": {"num_outputs": "4"}, 
      "inputs": [[420, 0, 0]]
    }, 
    {
      "op": "Activation", 
      "name": "lstm_l_0t7_o", 
      "attrs": {"act_type": "sigmoid"}, 
      "inputs": [[421, 3, 0]]
    }, 
    {
      "op": "Activation", 
      "name": "lstm_l_0t7_f", 
      "attrs": {"act_type": "sigmoid"}, 
      "inputs": [[421, 1, 0]]
    }, 
    {
      "op": "ones_like", 
      "name": "ones_like129", 
      "inputs": [[382, 0, 0]]
    }, 
    {
      "op": "Dropout", 
      "name": "dropout125", 
      "attrs": {"p": "0.1"}, 
      "inputs": [[424, 0, 0]]
    }, 
    {
      "op": "where", 
      "name": "where292", 
      "inputs": [[425, 0, 0], [382, 0, 0], [377, 0, 0]]
    }, 
    {
      "op": "where", 
      "name": "where298", 
      "inputs": [[36, 736, 0], [74, 0, 0], [426, 0, 0]]
    }, 
    {
      "op": "elemwise_mul", 
      "name": "_mul487", 
      "inputs": [[423, 0, 0], [427, 0, 0]]
    }, 
    {
      "op": "Activation", 
      "name": "lstm_l_0t7_i", 
      "attrs": {"act_type": "sigmoid"}, 
      "inputs": [[421, 0, 0]]
    }, 
    {
      "op": "Activation", 
      "name": "lstm_l_0t7_c", 
      "attrs": {"act_type": "tanh"}, 
      "inputs": [[421, 2, 0]]
    }, 
    {
      "op": "elemwise_mul", 
      "name": "_mul488", 
      "inputs": [[429, 0, 0], [430, 0, 0]]
    }, 
    {
      "op": "elemwise_add", 
      "name": "lstm_l_0t7_state", 
      "inputs": [[428, 0, 0], [431, 0, 0]]
    }, 
    {
      "op": "Activation", 
      "name": "activation128", 
      "attrs": {"act_type": "tanh"}, 
      "inputs": [[432, 0, 0]]
    }, 
    {
      "op": "elemwise_mul", 
      "name": "lstm_l_0t7_out", 
      "inputs": [[422, 0, 0], [433, 0, 0]]
    }, 
    {
      "op": "FullyConnected", 
      "name": "lstm_l_1t7_i2h", 
      "attrs": {"num_hidden": "160"}, 
      "inputs": [[434, 0, 0], [83, 0, 0], [84, 0, 0]]
    }, 
    {
      "op": "ones_like", 
      "name": "ones_like130", 
      "inputs": [[405, 0, 0]]
    }, 
    {
      "op": "Dropout", 
      "name": "dropout126", 
      "attrs": {"p": "0.1"}, 
      "inputs": [[436, 0, 0]]
    }, 
    {
      "op": "where", 
      "name": "where293", 
      "inputs": [[437, 0, 0], [405, 0, 0], [389, 0, 0]]
    }, 
    {
      "op": "where", 
      "name": "where299", 
      "inputs": [[36, 736, 0], [86, 0, 0], [438, 0, 0]]
    }, 
    {
      "op": "FullyConnected", 
      "name": "lstm_l_1t7_h2h", 
      "attrs": {"num_hidden": "160"}, 
      "inputs": [[439, 0, 0], [88, 0, 0], [89, 0, 0]]
    }, 
    {
      "op": "elemwise_add", 
      "name": "_plus129", 
      "inputs": [[435, 0, 0], [440, 0, 0]]
    }, 
    {
      "op": "SliceChannel", 
      "name": "lstm_l_1t7_slice", 
      "attrs": {"num_outputs": "4"}, 
      "inputs": [[441, 0, 0]]
    }, 
    {
      "op": "Activation", 
      "name": "lstm_l_1t7_o", 
      "attrs": {"act_type": "sigmoid"}, 
      "inputs": [[442, 3, 0]]
    }, 
    {
      "op": "Activation", 
      "name": "lstm_l_1t7_f", 
      "attrs": {"act_type": "sigmoid"}, 
      "inputs": [[442, 1, 0]]
    }, 
    {
      "op": "ones_like", 
      "name": "ones_like131", 
      "inputs": [[403, 0, 0]]
    }, 
    {
      "op": "Dropout", 
      "name": "dropout127", 
      "attrs": {"p": "0.1"}, 
      "inputs": [[445, 0, 0]]
    }, 
    {
      "op": "where", 
      "name": "where294", 
      "inputs": [[446, 0, 0], [403, 0, 0], [398, 0, 0]]
    }, 
    {
      "op": "where", 
      "name": "where300", 
      "inputs": [[36, 736, 0], [95, 0, 0], [447, 0, 0]]
    }, 
    {
      "op": "elemwise_mul", 
      "name": "_mul489", 
      "inputs": [[444, 0, 0], [448, 0, 0]]
    }, 
    {
      "op": "Activation", 
      "name": "lstm_l_1t7_i", 
      "attrs": {"act_type": "sigmoid"}, 
      "inputs": [[442, 0, 0]]
    }, 
    {
      "op": "Activation", 
      "name": "lstm_l_1t7_c", 
      "attrs": {"act_type": "tanh"}, 
      "inputs": [[442, 2, 0]]
    }, 
    {
      "op": "elemwise_mul", 
      "name": "_mul490", 
      "inputs": [[450, 0, 0], [451, 0, 0]]
    }, 
    {
      "op": "elemwise_add", 
      "name": "lstm_l_1t7_state", 
      "inputs": [[449, 0, 0], [452, 0, 0]]
    }, 
    {
      "op": "Activation", 
      "name": "activation129", 
      "attrs": {"act_type": "tanh"}, 
      "inputs": [[453, 0, 0]]
    }, 
    {
      "op": "elemwise_mul", 
      "name": "lstm_l_1t7_out", 
      "inputs": [[443, 0, 0], [454, 0, 0]]
    }, 
    {
      "op": "elemwise_add", 
      "name": "lstm_l_1t7_out_plus_residual", 
      "inputs": [[455, 0, 0], [434, 0, 0]]
    }, 
    {
      "op": "FullyConnected", 
      "name": "fullyconnected96", 
      "attrs": {"num_hidden": "1"}, 
      "inputs": [[456, 0, 0], [105, 0, 0], [106, 0, 0]]
    }, 
    {
      "op": "elemwise_mul", 
      "name": "_mul497", 
      "inputs": [[457, 0, 0], [30, 0, 0]]
    }, 
    {
      "op": "where", 
      "name": "where305", 
      "inputs": [[36, 736, 0], [51, 0, 0], [458, 0, 0]]
    }, 
    {
      "op": "where", 
      "name": "where306", 
      "inputs": [[15, 736, 0], [10, 736, 0], [459, 0, 0]]
    }, 
    {
      "op": "Concat", 
      "name": "concat75", 
      "attrs": {
        "dim": "1", 
        "num_args": "27"
      }, 
      "inputs": [
        [460, 0, 0], 
        [410, 0, 0], 
        [360, 0, 0], 
        [310, 0, 0], 
        [260, 0, 0], 
        [210, 0, 0], 
        [160, 0, 0], 
        [110, 0, 0], 
        [10, 724, 0], 
        [10, 723, 0], 
        [10, 722, 0], 
        [10, 717, 0], 
        [10, 716, 0], 
        [10, 715, 0], 
        [10, 710, 0], 
        [10, 709, 0], 
        [10, 708, 0], 
        [10, 707, 0], 
        [10, 706, 0], 
        [10, 681, 0], 
        [10, 653, 0], 
        [10, 374, 0], 
        [10, 373, 0], 
        [10, 372, 0], 
        [10, 10, 0], 
        [10, 9, 0], 
        [10, 8, 0]
      ]
    }, 
    {
      "op": "broadcast_div", 
      "name": "broadcast_div35", 
      "inputs": [[461, 0, 0], [30, 0, 0]]
    }, 
    {
      "op": "Concat", 
      "name": "concat76", 
      "attrs": {
        "dim": "1", 
        "num_args": "3"
      }, 
      "inputs": [[39, 737, 0], [32, 0, 0], [462, 0, 0]]
    }, 
    {
      "op": "FullyConnected", 
      "name": "lstm_l_0t8_i2h", 
      "attrs": {"num_hidden": "160"}, 
      "inputs": [[463, 0, 0], [62, 0, 0], [63, 0, 0]]
    }, 
    {
      "op": "ones_like", 
      "name": "ones_like132", 
      "inputs": [[434, 0, 0]]
    }, 
    {
      "op": "Dropout", 
      "name": "dropout128", 
      "attrs": {"p": "0.1"}, 
      "inputs": [[465, 0, 0]]
    }, 
    {
      "op": "where", 
      "name": "where301", 
      "inputs": [[466, 0, 0], [434, 0, 0], [418, 0, 0]]
    }, 
    {
      "op": "where", 
      "name": "where307", 
      "inputs": [[36, 737, 0], [65, 0, 0], [467, 0, 0]]
    }, 
    {
      "op": "FullyConnected", 
      "name": "lstm_l_0t8_h2h", 
      "attrs": {"num_hidden": "160"}, 
      "inputs": [[468, 0, 0], [67, 0, 0], [68, 0, 0]]
    }, 
    {
      "op": "elemwise_add", 
      "name": "_plus132", 
      "inputs": [[464, 0, 0], [469, 0, 0]]
    }, 
    {
      "op": "SliceChannel", 
      "name": "lstm_l_0t8_slice", 
      "attrs": {"num_outputs": "4"}, 
      "inputs": [[470, 0, 0]]
    }, 
    {
      "op": "Activation", 
      "name": "lstm_l_0t8_o", 
      "attrs": {"act_type": "sigmoid"}, 
      "inputs": [[471, 3, 0]]
    }, 
    {
      "op": "Activation", 
      "name": "lstm_l_0t8_f", 
      "attrs": {"act_type": "sigmoid"}, 
      "inputs": [[471, 1, 0]]
    }, 
    {
      "op": "ones_like", 
      "name": "ones_like133", 
      "inputs": [[432, 0, 0]]
    }, 
    {
      "op": "Dropout", 
      "name": "dropout129", 
      "attrs": {"p": "0.1"}, 
      "inputs": [[474, 0, 0]]
    }, 
    {
      "op": "where", 
      "name": "where302", 
      "inputs": [[475, 0, 0], [432, 0, 0], [427, 0, 0]]
    }, 
    {
      "op": "where", 
      "name": "where308", 
      "inputs": [[36, 737, 0], [74, 0, 0], [476, 0, 0]]
    }, 
    {
      "op": "elemwise_mul", 
      "name": "_mul502", 
      "inputs": [[473, 0, 0], [477, 0, 0]]
    }, 
    {
      "op": "Activation", 
      "name": "lstm_l_0t8_i", 
      "attrs": {"act_type": "sigmoid"}, 
      "inputs": [[471, 0, 0]]
    }, 
    {
      "op": "Activation", 
      "name": "lstm_l_0t8_c", 
      "attrs": {"act_type": "tanh"}, 
      "inputs": [[471, 2, 0]]
    }, 
    {
      "op": "elemwise_mul", 
      "name": "_mul503", 
      "inputs": [[479, 0, 0], [480, 0, 0]]
    }, 
    {
      "op": "elemwise_add", 
      "name": "lstm_l_0t8_state", 
      "inputs": [[478, 0, 0], [481, 0, 0]]
    }, 
    {
      "op": "Activation", 
      "name": "activation132", 
      "attrs": {"act_type": "tanh"}, 
      "inputs": [[482, 0, 0]]
    }, 
    {
      "op": "elemwise_mul", 
      "name": "lstm_l_0t8_out", 
      "inputs": [[472, 0, 0], [483, 0, 0]]
    }, 
    {
      "op": "FullyConnected", 
      "name": "lstm_l_1t8_i2h", 
      "attrs": {"num_hidden": "160"}, 
      "inputs": [[484, 0, 0], [83, 0, 0], [84, 0, 0]]
    }, 
    {
      "op": "ones_like", 
      "name": "ones_like134", 
      "inputs": [[455, 0, 0]]
    }, 
    {
      "op": "Dropout", 
      "name": "dropout130", 
      "attrs": {"p": "0.1"}, 
      "inputs": [[486, 0, 0]]
    }, 
    {
      "op": "where", 
      "name": "where303", 
      "inputs": [[487, 0, 0], [455, 0, 0], [439, 0, 0]]
    }, 
    {
      "op": "where", 
      "name": "where309", 
      "inputs": [[36, 737, 0], [86, 0, 0], [488, 0, 0]]
    }, 
    {
      "op": "FullyConnected", 
      "name": "lstm_l_1t8_h2h", 
      "attrs": {"num_hidden": "160"}, 
      "inputs": [[489, 0, 0], [88, 0, 0], [89, 0, 0]]
    }, 
    {
      "op": "elemwise_add", 
      "name": "_plus133", 
      "inputs": [[485, 0, 0], [490, 0, 0]]
    }, 
    {
      "op": "SliceChannel", 
      "name": "lstm_l_1t8_slice", 
      "attrs": {"num_outputs": "4"}, 
      "inputs": [[491, 0, 0]]
    }, 
    {
      "op": "Activation", 
      "name": "lstm_l_1t8_o", 
      "attrs": {"act_type": "sigmoid"}, 
      "inputs": [[492, 3, 0]]
    }, 
    {
      "op": "Activation", 
      "name": "lstm_l_1t8_f", 
      "attrs": {"act_type": "sigmoid"}, 
      "inputs": [[492, 1, 0]]
    }, 
    {
      "op": "ones_like", 
      "name": "ones_like135", 
      "inputs": [[453, 0, 0]]
    }, 
    {
      "op": "Dropout", 
      "name": "dropout131", 
      "attrs": {"p": "0.1"}, 
      "inputs": [[495, 0, 0]]
    }, 
    {
      "op": "where", 
      "name": "where304", 
      "inputs": [[496, 0, 0], [453, 0, 0], [448, 0, 0]]
    }, 
    {
      "op": "where", 
      "name": "where310", 
      "inputs": [[36, 737, 0], [95, 0, 0], [497, 0, 0]]
    }, 
    {
      "op": "elemwise_mul", 
      "name": "_mul504", 
      "inputs": [[494, 0, 0], [498, 0, 0]]
    }, 
    {
      "op": "Activation", 
      "name": "lstm_l_1t8_i", 
      "attrs": {"act_type": "sigmoid"}, 
      "inputs": [[492, 0, 0]]
    }, 
    {
      "op": "Activation", 
      "name": "lstm_l_1t8_c", 
      "attrs": {"act_type": "tanh"}, 
      "inputs": [[492, 2, 0]]
    }, 
    {
      "op": "elemwise_mul", 
      "name": "_mul505", 
      "inputs": [[500, 0, 0], [501, 0, 0]]
    }, 
    {
      "op": "elemwise_add", 
      "name": "lstm_l_1t8_state", 
      "inputs": [[499, 0, 0], [502, 0, 0]]
    }, 
    {
      "op": "Activation", 
      "name": "activation133", 
      "attrs": {"act_type": "tanh"}, 
      "inputs": [[503, 0, 0]]
    }, 
    {
      "op": "elemwise_mul", 
      "name": "lstm_l_1t8_out", 
      "inputs": [[493, 0, 0], [504, 0, 0]]
    }, 
    {
      "op": "elemwise_add", 
      "name": "lstm_l_1t8_out_plus_residual", 
      "inputs": [[505, 0, 0], [484, 0, 0]]
    }, 
    {
      "op": "FullyConnected", 
      "name": "fullyconnected99", 
      "attrs": {"num_hidden": "1"}, 
      "inputs": [[506, 0, 0], [105, 0, 0], [106, 0, 0]]
    }, 
    {
      "op": "elemwise_mul", 
      "name": "_mul512", 
      "inputs": [[507, 0, 0], [30, 0, 0]]
    }, 
    {
      "op": "where", 
      "name": "where315", 
      "inputs": [[36, 737, 0], [50, 0, 0], [508, 0, 0]]
    }, 
    {
      "op": "where", 
      "name": "where316", 
      "inputs": [[15, 737, 0], [10, 737, 0], [509, 0, 0]]
    }, 
    {
      "op": "Concat", 
      "name": "concat77", 
      "attrs": {
        "dim": "1", 
        "num_args": "27"
      }, 
      "inputs": [
        [510, 0, 0], 
        [460, 0, 0], 
        [410, 0, 0], 
        [360, 0, 0], 
        [310, 0, 0], 
        [260, 0, 0], 
        [210, 0, 0], 
        [160, 0, 0], 
        [10, 725, 0], 
        [10, 724, 0], 
        [10, 723, 0], 
        [10, 718, 0], 
        [10, 717, 0], 
        [10, 716, 0], 
        [10, 711, 0], 
        [10, 710, 0], 
        [10, 709, 0], 
        [10, 708, 0], 
        [10, 707, 0], 
        [10, 682, 0], 
        [10, 654, 0], 
        [10, 375, 0], 
        [10, 374, 0], 
        [10, 373, 0], 
        [10, 11, 0], 
        [10, 10, 0], 
        [10, 9, 0]
      ]
    }, 
    {
      "op": "broadcast_div", 
      "name": "broadcast_div36", 
      "inputs": [[511, 0, 0], [30, 0, 0]]
    }, 
    {
      "op": "Concat", 
      "name": "concat78", 
      "attrs": {
        "dim": "1", 
        "num_args": "3"
      }, 
      "inputs": [[39, 738, 0], [32, 0, 0], [512, 0, 0]]
    }, 
    {
      "op": "FullyConnected", 
      "name": "lstm_l_0t9_i2h", 
      "attrs": {"num_hidden": "160"}, 
      "inputs": [[513, 0, 0], [62, 0, 0], [63, 0, 0]]
    }, 
    {
      "op": "ones_like", 
      "name": "ones_like136", 
      "inputs": [[484, 0, 0]]
    }, 
    {
      "op": "Dropout", 
      "name": "dropout132", 
      "attrs": {"p": "0.1"}, 
      "inputs": [[515, 0, 0]]
    }, 
    {
      "op": "where", 
      "name": "where311", 
      "inputs": [[516, 0, 0], [484, 0, 0], [468, 0, 0]]
    }, 
    {
      "op": "where", 
      "name": "where317", 
      "inputs": [[36, 738, 0], [65, 0, 0], [517, 0, 0]]
    }, 
    {
      "op": "FullyConnected", 
      "name": "lstm_l_0t9_h2h", 
      "attrs": {"num_hidden": "160"}, 
      "inputs": [[518, 0, 0], [67, 0, 0], [68, 0, 0]]
    }, 
    {
      "op": "elemwise_add", 
      "name": "_plus136", 
      "inputs": [[514, 0, 0], [519, 0, 0]]
    }, 
    {
      "op": "SliceChannel", 
      "name": "lstm_l_0t9_slice", 
      "attrs": {"num_outputs": "4"}, 
      "inputs": [[520, 0, 0]]
    }, 
    {
      "op": "Activation", 
      "name": "lstm_l_0t9_o", 
      "attrs": {"act_type": "sigmoid"}, 
      "inputs": [[521, 3, 0]]
    }, 
    {
      "op": "Activation", 
      "name": "lstm_l_0t9_f", 
      "attrs": {"act_type": "sigmoid"}, 
      "inputs": [[521, 1, 0]]
    }, 
    {
      "op": "ones_like", 
      "name": "ones_like137", 
      "inputs": [[482, 0, 0]]
    }, 
    {
      "op": "Dropout", 
      "name": "dropout133", 
      "attrs": {"p": "0.1"}, 
      "inputs": [[524, 0, 0]]
    }, 
    {
      "op": "where", 
      "name": "where312", 
      "inputs": [[525, 0, 0], [482, 0, 0], [477, 0, 0]]
    }, 
    {
      "op": "where", 
      "name": "where318", 
      "inputs": [[36, 738, 0], [74, 0, 0], [526, 0, 0]]
    }, 
    {
      "op": "elemwise_mul", 
      "name": "_mul517", 
      "inputs": [[523, 0, 0], [527, 0, 0]]
    }, 
    {
      "op": "Activation", 
      "name": "lstm_l_0t9_i", 
      "attrs": {"act_type": "sigmoid"}, 
      "inputs": [[521, 0, 0]]
    }, 
    {
      "op": "Activation", 
      "name": "lstm_l_0t9_c", 
      "attrs": {"act_type": "tanh"}, 
      "inputs": [[521, 2, 0]]
    }, 
    {
      "op": "elemwise_mul", 
      "name": "_mul518", 
      "inputs": [[529, 0, 0], [530, 0, 0]]
    }, 
    {
      "op": "elemwise_add", 
      "name": "lstm_l_0t9_state", 
      "inputs": [[528, 0, 0], [531, 0, 0]]
    }, 
    {
      "op": "Activation", 
      "name": "activation136", 
      "attrs": {"act_type": "tanh"}, 
      "inputs": [[532, 0, 0]]
    }, 
    {
      "op": "elemwise_mul", 
      "name": "lstm_l_0t9_out", 
      "inputs": [[522, 0, 0], [533, 0, 0]]
    }, 
    {
      "op": "FullyConnected", 
      "name": "lstm_l_1t9_i2h", 
      "attrs": {"num_hidden": "160"}, 
      "inputs": [[534, 0, 0], [83, 0, 0], [84, 0, 0]]
    }, 
    {
      "op": "ones_like", 
      "name": "ones_like138", 
      "inputs": [[505, 0, 0]]
    }, 
    {
      "op": "Dropout", 
      "name": "dropout134", 
      "attrs": {"p": "0.1"}, 
      "inputs": [[536, 0, 0]]
    }, 
    {
      "op": "where", 
      "name": "where313", 
      "inputs": [[537, 0, 0], [505, 0, 0], [489, 0, 0]]
    }, 
    {
      "op": "where", 
      "name": "where319", 
      "inputs": [[36, 738, 0], [86, 0, 0], [538, 0, 0]]
    }, 
    {
      "op": "FullyConnected", 
      "name": "lstm_l_1t9_h2h", 
      "attrs": {"num_hidden": "160"}, 
      "inputs": [[539, 0, 0], [88, 0, 0], [89, 0, 0]]
    }, 
    {
      "op": "elemwise_add", 
      "name": "_plus137", 
      "inputs": [[535, 0, 0], [540, 0, 0]]
    }, 
    {
      "op": "SliceChannel", 
      "name": "lstm_l_1t9_slice", 
      "attrs": {"num_outputs": "4"}, 
      "inputs": [[541, 0, 0]]
    }, 
    {
      "op": "Activation", 
      "name": "lstm_l_1t9_o", 
      "attrs": {"act_type": "sigmoid"}, 
      "inputs": [[542, 3, 0]]
    }, 
    {
      "op": "Activation", 
      "name": "lstm_l_1t9_f", 
      "attrs": {"act_type": "sigmoid"}, 
      "inputs": [[542, 1, 0]]
    }, 
    {
      "op": "ones_like", 
      "name": "ones_like139", 
      "inputs": [[503, 0, 0]]
    }, 
    {
      "op": "Dropout", 
      "name": "dropout135", 
      "attrs": {"p": "0.1"}, 
      "inputs": [[545, 0, 0]]
    }, 
    {
      "op": "where", 
      "name": "where314", 
      "inputs": [[546, 0, 0], [503, 0, 0], [498, 0, 0]]
    }, 
    {
      "op": "where", 
      "name": "where320", 
      "inputs": [[36, 738, 0], [95, 0, 0], [547, 0, 0]]
    }, 
    {
      "op": "elemwise_mul", 
      "name": "_mul519", 
      "inputs": [[544, 0, 0], [548, 0, 0]]
    }, 
    {
      "op": "Activation", 
      "name": "lstm_l_1t9_i", 
      "attrs": {"act_type": "sigmoid"}, 
      "inputs": [[542, 0, 0]]
    }, 
    {
      "op": "Activation", 
      "name": "lstm_l_1t9_c", 
      "attrs": {"act_type": "tanh"}, 
      "inputs": [[542, 2, 0]]
    }, 
    {
      "op": "elemwise_mul", 
      "name": "_mul520", 
      "inputs": [[550, 0, 0], [551, 0, 0]]
    }, 
    {
      "op": "elemwise_add", 
      "name": "lstm_l_1t9_state", 
      "inputs": [[549, 0, 0], [552, 0, 0]]
    }, 
    {
      "op": "Activation", 
      "name": "activation137", 
      "attrs": {"act_type": "tanh"}, 
      "inputs": [[553, 0, 0]]
    }, 
    {
      "op": "elemwise_mul", 
      "name": "lstm_l_1t9_out", 
      "inputs": [[543, 0, 0], [554, 0, 0]]
    }, 
    {
      "op": "elemwise_add", 
      "name": "lstm_l_1t9_out_plus_residual", 
      "inputs": [[555, 0, 0], [534, 0, 0]]
    }, 
    {
      "op": "FullyConnected", 
      "name": "fullyconnected102", 
      "attrs": {"num_hidden": "1"}, 
      "inputs": [[556, 0, 0], [105, 0, 0], [106, 0, 0]]
    }, 
    {
      "op": "elemwise_mul", 
      "name": "_mul527", 
      "inputs": [[557, 0, 0], [30, 0, 0]]
    }, 
    {
      "op": "where", 
      "name": "where325", 
      "inputs": [[36, 738, 0], [49, 0, 0], [558, 0, 0]]
    }, 
    {
      "op": "where", 
      "name": "where326", 
      "inputs": [[15, 738, 0], [10, 738, 0], [559, 0, 0]]
    }, 
    {
      "op": "Concat", 
      "name": "concat79", 
      "attrs": {
        "dim": "1", 
        "num_args": "27"
      }, 
      "inputs": [
        [560, 0, 0], 
        [510, 0, 0], 
        [460, 0, 0], 
        [410, 0, 0], 
        [360, 0, 0], 
        [310, 0, 0], 
        [260, 0, 0], 
        [210, 0, 0], 
        [10, 726, 0], 
        [10, 725, 0], 
        [10, 724, 0], 
        [10, 719, 0], 
        [10, 718, 0], 
        [10, 717, 0], 
        [10, 712, 0], 
        [10, 711, 0], 
        [10, 710, 0], 
        [10, 709, 0], 
        [10, 708, 0], 
        [10, 683, 0], 
        [10, 655, 0], 
        [10, 376, 0], 
        [10, 375, 0], 
        [10, 374, 0], 
        [10, 12, 0], 
        [10, 11, 0], 
        [10, 10, 0]
      ]
    }, 
    {
      "op": "broadcast_div", 
      "name": "broadcast_div37", 
      "inputs": [[561, 0, 0], [30, 0, 0]]
    }, 
    {
      "op": "Concat", 
      "name": "concat80", 
      "attrs": {
        "dim": "1", 
        "num_args": "3"
      }, 
      "inputs": [[39, 739, 0], [32, 0, 0], [562, 0, 0]]
    }, 
    {
      "op": "FullyConnected", 
      "name": "lstm_l_0t10_i2h", 
      "attrs": {"num_hidden": "160"}, 
      "inputs": [[563, 0, 0], [62, 0, 0], [63, 0, 0]]
    }, 
    {
      "op": "ones_like", 
      "name": "ones_like140", 
      "inputs": [[534, 0, 0]]
    }, 
    {
      "op": "Dropout", 
      "name": "dropout136", 
      "attrs": {"p": "0.1"}, 
      "inputs": [[565, 0, 0]]
    }, 
    {
      "op": "where", 
      "name": "where321", 
      "inputs": [[566, 0, 0], [534, 0, 0], [518, 0, 0]]
    }, 
    {
      "op": "where", 
      "name": "where327", 
      "inputs": [[36, 739, 0], [65, 0, 0], [567, 0, 0]]
    }, 
    {
      "op": "FullyConnected", 
      "name": "lstm_l_0t10_h2h", 
      "attrs": {"num_hidden": "160"}, 
      "inputs": [[568, 0, 0], [67, 0, 0], [68, 0, 0]]
    }, 
    {
      "op": "elemwise_add", 
      "name": "_plus140", 
      "inputs": [[564, 0, 0], [569, 0, 0]]
    }, 
    {
      "op": "SliceChannel", 
      "name": "lstm_l_0t10_slice", 
      "attrs": {"num_outputs": "4"}, 
      "inputs": [[570, 0, 0]]
    }, 
    {
      "op": "Activation", 
      "name": "lstm_l_0t10_o", 
      "attrs": {"act_type": "sigmoid"}, 
      "inputs": [[571, 3, 0]]
    }, 
    {
      "op": "Activation", 
      "name": "lstm_l_0t10_f", 
      "attrs": {"act_type": "sigmoid"}, 
      "inputs": [[571, 1, 0]]
    }, 
    {
      "op": "ones_like", 
      "name": "ones_like141", 
      "inputs": [[532, 0, 0]]
    }, 
    {
      "op": "Dropout", 
      "name": "dropout137", 
      "attrs": {"p": "0.1"}, 
      "inputs": [[574, 0, 0]]
    }, 
    {
      "op": "where", 
      "name": "where322", 
      "inputs": [[575, 0, 0], [532, 0, 0], [527, 0, 0]]
    }, 
    {
      "op": "where", 
      "name": "where328", 
      "inputs": [[36, 739, 0], [74, 0, 0], [576, 0, 0]]
    }, 
    {
      "op": "elemwise_mul", 
      "name": "_mul532", 
      "inputs": [[573, 0, 0], [577, 0, 0]]
    }, 
    {
      "op": "Activation", 
      "name": "lstm_l_0t10_i", 
      "attrs": {"act_type": "sigmoid"}, 
      "inputs": [[571, 0, 0]]
    }, 
    {
      "op": "Activation", 
      "name": "lstm_l_0t10_c", 
      "attrs": {"act_type": "tanh"}, 
      "inputs": [[571, 2, 0]]
    }, 
    {
      "op": "elemwise_mul", 
      "name": "_mul533", 
      "inputs": [[579, 0, 0], [580, 0, 0]]
    }, 
    {
      "op": "elemwise_add", 
      "name": "lstm_l_0t10_state", 
      "inputs": [[578, 0, 0], [581, 0, 0]]
    }, 
    {
      "op": "Activation", 
      "name": "activation140", 
      "attrs": {"act_type": "tanh"}, 
      "inputs": [[582, 0, 0]]
    }, 
    {
      "op": "elemwise_mul", 
      "name": "lstm_l_0t10_out", 
      "inputs": [[572, 0, 0], [583, 0, 0]]
    }, 
    {
      "op": "FullyConnected", 
      "name": "lstm_l_1t10_i2h", 
      "attrs": {"num_hidden": "160"}, 
      "inputs": [[584, 0, 0], [83, 0, 0], [84, 0, 0]]
    }, 
    {
      "op": "ones_like", 
      "name": "ones_like142", 
      "inputs": [[555, 0, 0]]
    }, 
    {
      "op": "Dropout", 
      "name": "dropout138", 
      "attrs": {"p": "0.1"}, 
      "inputs": [[586, 0, 0]]
    }, 
    {
      "op": "where", 
      "name": "where323", 
      "inputs": [[587, 0, 0], [555, 0, 0], [539, 0, 0]]
    }, 
    {
      "op": "where", 
      "name": "where329", 
      "inputs": [[36, 739, 0], [86, 0, 0], [588, 0, 0]]
    }, 
    {
      "op": "FullyConnected", 
      "name": "lstm_l_1t10_h2h", 
      "attrs": {"num_hidden": "160"}, 
      "inputs": [[589, 0, 0], [88, 0, 0], [89, 0, 0]]
    }, 
    {
      "op": "elemwise_add", 
      "name": "_plus141", 
      "inputs": [[585, 0, 0], [590, 0, 0]]
    }, 
    {
      "op": "SliceChannel", 
      "name": "lstm_l_1t10_slice", 
      "attrs": {"num_outputs": "4"}, 
      "inputs": [[591, 0, 0]]
    }, 
    {
      "op": "Activation", 
      "name": "lstm_l_1t10_o", 
      "attrs": {"act_type": "sigmoid"}, 
      "inputs": [[592, 3, 0]]
    }, 
    {
      "op": "Activation", 
      "name": "lstm_l_1t10_f", 
      "attrs": {"act_type": "sigmoid"}, 
      "inputs": [[592, 1, 0]]
    }, 
    {
      "op": "ones_like", 
      "name": "ones_like143", 
      "inputs": [[553, 0, 0]]
    }, 
    {
      "op": "Dropout", 
      "name": "dropout139", 
      "attrs": {"p": "0.1"}, 
      "inputs": [[595, 0, 0]]
    }, 
    {
      "op": "where", 
      "name": "where324", 
      "inputs": [[596, 0, 0], [553, 0, 0], [548, 0, 0]]
    }, 
    {
      "op": "where", 
      "name": "where330", 
      "inputs": [[36, 739, 0], [95, 0, 0], [597, 0, 0]]
    }, 
    {
      "op": "elemwise_mul", 
      "name": "_mul534", 
      "inputs": [[594, 0, 0], [598, 0, 0]]
    }, 
    {
      "op": "Activation", 
      "name": "lstm_l_1t10_i", 
      "attrs": {"act_type": "sigmoid"}, 
      "inputs": [[592, 0, 0]]
    }, 
    {
      "op": "Activation", 
      "name": "lstm_l_1t10_c", 
      "attrs": {"act_type": "tanh"}, 
      "inputs": [[592, 2, 0]]
    }, 
    {
      "op": "elemwise_mul", 
      "name": "_mul535", 
      "inputs": [[600, 0, 0], [601, 0, 0]]
    }, 
    {
      "op": "elemwise_add", 
      "name": "lstm_l_1t10_state", 
      "inputs": [[599, 0, 0], [602, 0, 0]]
    }, 
    {
      "op": "Activation", 
      "name": "activation141", 
      "attrs": {"act_type": "tanh"}, 
      "inputs": [[603, 0, 0]]
    }, 
    {
      "op": "elemwise_mul", 
      "name": "lstm_l_1t10_out", 
      "inputs": [[593, 0, 0], [604, 0, 0]]
    }, 
    {
      "op": "elemwise_add", 
      "name": "lstm_l_1t10_out_plus_residual", 
      "inputs": [[605, 0, 0], [584, 0, 0]]
    }, 
    {
      "op": "FullyConnected", 
      "name": "fullyconnected105", 
      "attrs": {"num_hidden": "1"}, 
      "inputs": [[606, 0, 0], [105, 0, 0], [106, 0, 0]]
    }, 
    {
      "op": "elemwise_mul", 
      "name": "_mul542", 
      "inputs": [[607, 0, 0], [30, 0, 0]]
    }, 
    {
      "op": "where", 
      "name": "where335", 
      "inputs": [[36, 739, 0], [48, 0, 0], [608, 0, 0]]
    }, 
    {
      "op": "where", 
      "name": "where336", 
      "inputs": [[15, 739, 0], [10, 739, 0], [609, 0, 0]]
    }, 
    {
      "op": "Concat", 
      "name": "concat81", 
      "attrs": {
        "dim": "1", 
        "num_args": "27"
      }, 
      "inputs": [
        [610, 0, 0], 
        [560, 0, 0], 
        [510, 0, 0], 
        [460, 0, 0], 
        [410, 0, 0], 
        [360, 0, 0], 
        [310, 0, 0], 
        [260, 0, 0], 
        [10, 727, 0], 
        [10, 726, 0], 
        [10, 725, 0], 
        [10, 720, 0], 
        [10, 719, 0], 
        [10, 718, 0], 
        [10, 713, 0], 
        [10, 712, 0], 
        [10, 711, 0], 
        [10, 710, 0], 
        [10, 709, 0], 
        [10, 684, 0], 
        [10, 656, 0], 
        [10, 377, 0], 
        [10, 376, 0], 
        [10, 375, 0], 
        [10, 13, 0], 
        [10, 12, 0], 
        [10, 11, 0]
      ]
    }, 
    {
      "op": "broadcast_div", 
      "name": "broadcast_div38", 
      "inputs": [[611, 0, 0], [30, 0, 0]]
    }, 
    {
      "op": "Concat", 
      "name": "concat82", 
      "attrs": {
        "dim": "1", 
        "num_args": "3"
      }, 
      "inputs": [[39, 740, 0], [32, 0, 0], [612, 0, 0]]
    }, 
    {
      "op": "FullyConnected", 
      "name": "lstm_l_0t11_i2h", 
      "attrs": {"num_hidden": "160"}, 
      "inputs": [[613, 0, 0], [62, 0, 0], [63, 0, 0]]
    }, 
    {
      "op": "ones_like", 
      "name": "ones_like144", 
      "inputs": [[584, 0, 0]]
    }, 
    {
      "op": "Dropout", 
      "name": "dropout140", 
      "attrs": {"p": "0.1"}, 
      "inputs": [[615, 0, 0]]
    }, 
    {
      "op": "where", 
      "name": "where331", 
      "inputs": [[616, 0, 0], [584, 0, 0], [568, 0, 0]]
    }, 
    {
      "op": "where", 
      "name": "where337", 
      "inputs": [[36, 740, 0], [65, 0, 0], [617, 0, 0]]
    }, 
    {
      "op": "FullyConnected", 
      "name": "lstm_l_0t11_h2h", 
      "attrs": {"num_hidden": "160"}, 
      "inputs": [[618, 0, 0], [67, 0, 0], [68, 0, 0]]
    }, 
    {
      "op": "elemwise_add", 
      "name": "_plus144", 
      "inputs": [[614, 0, 0], [619, 0, 0]]
    }, 
    {
      "op": "SliceChannel", 
      "name": "lstm_l_0t11_slice", 
      "attrs": {"num_outputs": "4"}, 
      "inputs": [[620, 0, 0]]
    }, 
    {
      "op": "Activation", 
      "name": "lstm_l_0t11_o", 
      "attrs": {"act_type": "sigmoid"}, 
      "inputs": [[621, 3, 0]]
    }, 
    {
      "op": "Activation", 
      "name": "lstm_l_0t11_f", 
      "attrs": {"act_type": "sigmoid"}, 
      "inputs": [[621, 1, 0]]
    }, 
    {
      "op": "ones_like", 
      "name": "ones_like145", 
      "inputs": [[582, 0, 0]]
    }, 
    {
      "op": "Dropout", 
      "name": "dropout141", 
      "attrs": {"p": "0.1"}, 
      "inputs": [[624, 0, 0]]
    }, 
    {
      "op": "where", 
      "name": "where332", 
      "inputs": [[625, 0, 0], [582, 0, 0], [577, 0, 0]]
    }, 
    {
      "op": "where", 
      "name": "where338", 
      "inputs": [[36, 740, 0], [74, 0, 0], [626, 0, 0]]
    }, 
    {
      "op": "elemwise_mul", 
      "name": "_mul547", 
      "inputs": [[623, 0, 0], [627, 0, 0]]
    }, 
    {
      "op": "Activation", 
      "name": "lstm_l_0t11_i", 
      "attrs": {"act_type": "sigmoid"}, 
      "inputs": [[621, 0, 0]]
    }, 
    {
      "op": "Activation", 
      "name": "lstm_l_0t11_c", 
      "attrs": {"act_type": "tanh"}, 
      "inputs": [[621, 2, 0]]
    }, 
    {
      "op": "elemwise_mul", 
      "name": "_mul548", 
      "inputs": [[629, 0, 0], [630, 0, 0]]
    }, 
    {
      "op": "elemwise_add", 
      "name": "lstm_l_0t11_state", 
      "inputs": [[628, 0, 0], [631, 0, 0]]
    }, 
    {
      "op": "Activation", 
      "name": "activation144", 
      "attrs": {"act_type": "tanh"}, 
      "inputs": [[632, 0, 0]]
    }, 
    {
      "op": "elemwise_mul", 
      "name": "lstm_l_0t11_out", 
      "inputs": [[622, 0, 0], [633, 0, 0]]
    }, 
    {
      "op": "FullyConnected", 
      "name": "lstm_l_1t11_i2h", 
      "attrs": {"num_hidden": "160"}, 
      "inputs": [[634, 0, 0], [83, 0, 0], [84, 0, 0]]
    }, 
    {
      "op": "ones_like", 
      "name": "ones_like146", 
      "inputs": [[605, 0, 0]]
    }, 
    {
      "op": "Dropout", 
      "name": "dropout142", 
      "attrs": {"p": "0.1"}, 
      "inputs": [[636, 0, 0]]
    }, 
    {
      "op": "where", 
      "name": "where333", 
      "inputs": [[637, 0, 0], [605, 0, 0], [589, 0, 0]]
    }, 
    {
      "op": "where", 
      "name": "where339", 
      "inputs": [[36, 740, 0], [86, 0, 0], [638, 0, 0]]
    }, 
    {
      "op": "FullyConnected", 
      "name": "lstm_l_1t11_h2h", 
      "attrs": {"num_hidden": "160"}, 
      "inputs": [[639, 0, 0], [88, 0, 0], [89, 0, 0]]
    }, 
    {
      "op": "elemwise_add", 
      "name": "_plus145", 
      "inputs": [[635, 0, 0], [640, 0, 0]]
    }, 
    {
      "op": "SliceChannel", 
      "name": "lstm_l_1t11_slice", 
      "attrs": {"num_outputs": "4"}, 
      "inputs": [[641, 0, 0]]
    }, 
    {
      "op": "Activation", 
      "name": "lstm_l_1t11_o", 
      "attrs": {"act_type": "sigmoid"}, 
      "inputs": [[642, 3, 0]]
    }, 
    {
      "op": "Activation", 
      "name": "lstm_l_1t11_f", 
      "attrs": {"act_type": "sigmoid"}, 
      "inputs": [[642, 1, 0]]
    }, 
    {
      "op": "ones_like", 
      "name": "ones_like147", 
      "inputs": [[603, 0, 0]]
    }, 
    {
      "op": "Dropout", 
      "name": "dropout143", 
      "attrs": {"p": "0.1"}, 
      "inputs": [[645, 0, 0]]
    }, 
    {
      "op": "where", 
      "name": "where334", 
      "inputs": [[646, 0, 0], [603, 0, 0], [598, 0, 0]]
    }, 
    {
      "op": "where", 
      "name": "where340", 
      "inputs": [[36, 740, 0], [95, 0, 0], [647, 0, 0]]
    }, 
    {
      "op": "elemwise_mul", 
      "name": "_mul549", 
      "inputs": [[644, 0, 0], [648, 0, 0]]
    }, 
    {
      "op": "Activation", 
      "name": "lstm_l_1t11_i", 
      "attrs": {"act_type": "sigmoid"}, 
      "inputs": [[642, 0, 0]]
    }, 
    {
      "op": "Activation", 
      "name": "lstm_l_1t11_c", 
      "attrs": {"act_type": "tanh"}, 
      "inputs": [[642, 2, 0]]
    }, 
    {
      "op": "elemwise_mul", 
      "name": "_mul550", 
      "inputs": [[650, 0, 0], [651, 0, 0]]
    }, 
    {
      "op": "elemwise_add", 
      "name": "lstm_l_1t11_state", 
      "inputs": [[649, 0, 0], [652, 0, 0]]
    }, 
    {
      "op": "Activation", 
      "name": "activation145", 
      "attrs": {"act_type": "tanh"}, 
      "inputs": [[653, 0, 0]]
    }, 
    {
      "op": "elemwise_mul", 
      "name": "lstm_l_1t11_out", 
      "inputs": [[643, 0, 0], [654, 0, 0]]
    }, 
    {
      "op": "elemwise_add", 
      "name": "lstm_l_1t11_out_plus_residual", 
      "inputs": [[655, 0, 0], [634, 0, 0]]
    }, 
    {
      "op": "FullyConnected", 
      "name": "fullyconnected108", 
      "attrs": {"num_hidden": "1"}, 
      "inputs": [[656, 0, 0], [105, 0, 0], [106, 0, 0]]
    }, 
    {
      "op": "elemwise_mul", 
      "name": "_mul557", 
      "inputs": [[657, 0, 0], [30, 0, 0]]
    }, 
    {
      "op": "where", 
      "name": "where345", 
      "inputs": [[36, 740, 0], [47, 0, 0], [658, 0, 0]]
    }, 
    {
      "op": "where", 
      "name": "where346", 
      "inputs": [[15, 740, 0], [10, 740, 0], [659, 0, 0]]
    }, 
    {
      "op": "Concat", 
      "name": "concat83", 
      "attrs": {
        "dim": "1", 
        "num_args": "27"
      }, 
      "inputs": [
        [660, 0, 0], 
        [610, 0, 0], 
        [560, 0, 0], 
        [510, 0, 0], 
        [460, 0, 0], 
        [410, 0, 0], 
        [360, 0, 0], 
        [310, 0, 0], 
        [10, 728, 0], 
        [10, 727, 0], 
        [10, 726, 0], 
        [10, 721, 0], 
        [10, 720, 0], 
        [10, 719, 0], 
        [10, 714, 0], 
        [10, 713, 0], 
        [10, 712, 0], 
        [10, 711, 0], 
        [10, 710, 0], 
        [10, 685, 0], 
        [10, 657, 0], 
        [10, 378, 0], 
        [10, 377, 0], 
        [10, 376, 0], 
        [10, 14, 0], 
        [10, 13, 0], 
        [10, 12, 0]
      ]
    }, 
    {
      "op": "broadcast_div", 
      "name": "broadcast_div39", 
      "inputs": [[661, 0, 0], [30, 0, 0]]
    }, 
    {
      "op": "Concat", 
      "name": "concat84", 
      "attrs": {
        "dim": "1", 
        "num_args": "3"
      }, 
      "inputs": [[39, 741, 0], [32, 0, 0], [662, 0, 0]]
    }, 
    {
      "op": "FullyConnected", 
      "name": "lstm_l_0t12_i2h", 
      "attrs": {"num_hidden": "160"}, 
      "inputs": [[663, 0, 0], [62, 0, 0], [63, 0, 0]]
    }, 
    {
      "op": "ones_like", 
      "name": "ones_like148", 
      "inputs": [[634, 0, 0]]
    }, 
    {
      "op": "Dropout", 
      "name": "dropout144", 
      "attrs": {"p": "0.1"}, 
      "inputs": [[665, 0, 0]]
    }, 
    {
      "op": "where", 
      "name": "where341", 
      "inputs": [[666, 0, 0], [634, 0, 0], [618, 0, 0]]
    }, 
    {
      "op": "where", 
      "name": "where347", 
      "inputs": [[36, 741, 0], [65, 0, 0], [667, 0, 0]]
    }, 
    {
      "op": "FullyConnected", 
      "name": "lstm_l_0t12_h2h", 
      "attrs": {"num_hidden": "160"}, 
      "inputs": [[668, 0, 0], [67, 0, 0], [68, 0, 0]]
    }, 
    {
      "op": "elemwise_add", 
      "name": "_plus148", 
      "inputs": [[664, 0, 0], [669, 0, 0]]
    }, 
    {
      "op": "SliceChannel", 
      "name": "lstm_l_0t12_slice", 
      "attrs": {"num_outputs": "4"}, 
      "inputs": [[670, 0, 0]]
    }, 
    {
      "op": "Activation", 
      "name": "lstm_l_0t12_o", 
      "attrs": {"act_type": "sigmoid"}, 
      "inputs": [[671, 3, 0]]
    }, 
    {
      "op": "Activation", 
      "name": "lstm_l_0t12_f", 
      "attrs": {"act_type": "sigmoid"}, 
      "inputs": [[671, 1, 0]]
    }, 
    {
      "op": "ones_like", 
      "name": "ones_like149", 
      "inputs": [[632, 0, 0]]
    }, 
    {
      "op": "Dropout", 
      "name": "dropout145", 
      "attrs": {"p": "0.1"}, 
      "inputs": [[674, 0, 0]]
    }, 
    {
      "op": "where", 
      "name": "where342", 
      "inputs": [[675, 0, 0], [632, 0, 0], [627, 0, 0]]
    }, 
    {
      "op": "where", 
      "name": "where348", 
      "inputs": [[36, 741, 0], [74, 0, 0], [676, 0, 0]]
    }, 
    {
      "op": "elemwise_mul", 
      "name": "_mul562", 
      "inputs": [[673, 0, 0], [677, 0, 0]]
    }, 
    {
      "op": "Activation", 
      "name": "lstm_l_0t12_i", 
      "attrs": {"act_type": "sigmoid"}, 
      "inputs": [[671, 0, 0]]
    }, 
    {
      "op": "Activation", 
      "name": "lstm_l_0t12_c", 
      "attrs": {"act_type": "tanh"}, 
      "inputs": [[671, 2, 0]]
    }, 
    {
      "op": "elemwise_mul", 
      "name": "_mul563", 
      "inputs": [[679, 0, 0], [680, 0, 0]]
    }, 
    {
      "op": "elemwise_add", 
      "name": "lstm_l_0t12_state", 
      "inputs": [[678, 0, 0], [681, 0, 0]]
    }, 
    {
      "op": "Activation", 
      "name": "activation148", 
      "attrs": {"act_type": "tanh"}, 
      "inputs": [[682, 0, 0]]
    }, 
    {
      "op": "elemwise_mul", 
      "name": "lstm_l_0t12_out", 
      "inputs": [[672, 0, 0], [683, 0, 0]]
    }, 
    {
      "op": "FullyConnected", 
      "name": "lstm_l_1t12_i2h", 
      "attrs": {"num_hidden": "160"}, 
      "inputs": [[684, 0, 0], [83, 0, 0], [84, 0, 0]]
    }, 
    {
      "op": "ones_like", 
      "name": "ones_like150", 
      "inputs": [[655, 0, 0]]
    }, 
    {
      "op": "Dropout", 
      "name": "dropout146", 
      "attrs": {"p": "0.1"}, 
      "inputs": [[686, 0, 0]]
    }, 
    {
      "op": "where", 
      "name": "where343", 
      "inputs": [[687, 0, 0], [655, 0, 0], [639, 0, 0]]
    }, 
    {
      "op": "where", 
      "name": "where349", 
      "inputs": [[36, 741, 0], [86, 0, 0], [688, 0, 0]]
    }, 
    {
      "op": "FullyConnected", 
      "name": "lstm_l_1t12_h2h", 
      "attrs": {"num_hidden": "160"}, 
      "inputs": [[689, 0, 0], [88, 0, 0], [89, 0, 0]]
    }, 
    {
      "op": "elemwise_add", 
      "name": "_plus149", 
      "inputs": [[685, 0, 0], [690, 0, 0]]
    }, 
    {
      "op": "SliceChannel", 
      "name": "lstm_l_1t12_slice", 
      "attrs": {"num_outputs": "4"}, 
      "inputs": [[691, 0, 0]]
    }, 
    {
      "op": "Activation", 
      "name": "lstm_l_1t12_o", 
      "attrs": {"act_type": "sigmoid"}, 
      "inputs": [[692, 3, 0]]
    }, 
    {
      "op": "Activation", 
      "name": "lstm_l_1t12_f", 
      "attrs": {"act_type": "sigmoid"}, 
      "inputs": [[692, 1, 0]]
    }, 
    {
      "op": "ones_like", 
      "name": "ones_like151", 
      "inputs": [[653, 0, 0]]
    }, 
    {
      "op": "Dropout", 
      "name": "dropout147", 
      "attrs": {"p": "0.1"}, 
      "inputs": [[695, 0, 0]]
    }, 
    {
      "op": "where", 
      "name": "where344", 
      "inputs": [[696, 0, 0], [653, 0, 0], [648, 0, 0]]
    }, 
    {
      "op": "where", 
      "name": "where350", 
      "inputs": [[36, 741, 0], [95, 0, 0], [697, 0, 0]]
    }, 
    {
      "op": "elemwise_mul", 
      "name": "_mul564", 
      "inputs": [[694, 0, 0], [698, 0, 0]]
    }, 
    {
      "op": "Activation", 
      "name": "lstm_l_1t12_i", 
      "attrs": {"act_type": "sigmoid"}, 
      "inputs": [[692, 0, 0]]
    }, 
    {
      "op": "Activation", 
      "name": "lstm_l_1t12_c", 
      "attrs": {"act_type": "tanh"}, 
      "inputs": [[692, 2, 0]]
    }, 
    {
      "op": "elemwise_mul", 
      "name": "_mul565", 
      "inputs": [[700, 0, 0], [701, 0, 0]]
    }, 
    {
      "op": "elemwise_add", 
      "name": "lstm_l_1t12_state", 
      "inputs": [[699, 0, 0], [702, 0, 0]]
    }, 
    {
      "op": "Activation", 
      "name": "activation149", 
      "attrs": {"act_type": "tanh"}, 
      "inputs": [[703, 0, 0]]
    }, 
    {
      "op": "elemwise_mul", 
      "name": "lstm_l_1t12_out", 
      "inputs": [[693, 0, 0], [704, 0, 0]]
    }, 
    {
      "op": "elemwise_add", 
      "name": "lstm_l_1t12_out_plus_residual", 
      "inputs": [[705, 0, 0], [684, 0, 0]]
    }, 
    {
      "op": "FullyConnected", 
      "name": "fullyconnected111", 
      "attrs": {"num_hidden": "1"}, 
      "inputs": [[706, 0, 0], [105, 0, 0], [106, 0, 0]]
    }, 
    {
      "op": "elemwise_mul", 
      "name": "_mul572", 
      "inputs": [[707, 0, 0], [30, 0, 0]]
    }, 
    {
      "op": "where", 
      "name": "where355", 
      "inputs": [[36, 741, 0], [46, 0, 0], [708, 0, 0]]
    }, 
    {
      "op": "where", 
      "name": "where356", 
      "inputs": [[15, 741, 0], [10, 741, 0], [709, 0, 0]]
    }, 
    {
      "op": "Concat", 
      "name": "concat85", 
      "attrs": {
        "dim": "1", 
        "num_args": "27"
      }, 
      "inputs": [
        [710, 0, 0], 
        [660, 0, 0], 
        [610, 0, 0], 
        [560, 0, 0], 
        [510, 0, 0], 
        [460, 0, 0], 
        [410, 0, 0], 
        [360, 0, 0], 
        [110, 0, 0], 
        [10, 728, 0], 
        [10, 727, 0], 
        [10, 722, 0], 
        [10, 721, 0], 
        [10, 720, 0], 
        [10, 715, 0], 
        [10, 714, 0], 
        [10, 713, 0], 
        [10, 712, 0], 
        [10, 711, 0], 
        [10, 686, 0], 
        [10, 658, 0], 
        [10, 379, 0], 
        [10, 378, 0], 
        [10, 377, 0], 
        [10, 15, 0], 
        [10, 14, 0], 
        [10, 13, 0]
      ]
    }, 
    {
      "op": "broadcast_div", 
      "name": "broadcast_div40", 
      "inputs": [[711, 0, 0], [30, 0, 0]]
    }, 
    {
      "op": "Concat", 
      "name": "concat86", 
      "attrs": {
        "dim": "1", 
        "num_args": "3"
      }, 
      "inputs": [[39, 742, 0], [32, 0, 0], [712, 0, 0]]
    }, 
    {
      "op": "FullyConnected", 
      "name": "lstm_l_0t13_i2h", 
      "attrs": {"num_hidden": "160"}, 
      "inputs": [[713, 0, 0], [62, 0, 0], [63, 0, 0]]
    }, 
    {
      "op": "ones_like", 
      "name": "ones_like152", 
      "inputs": [[684, 0, 0]]
    }, 
    {
      "op": "Dropout", 
      "name": "dropout148", 
      "attrs": {"p": "0.1"}, 
      "inputs": [[715, 0, 0]]
    }, 
    {
      "op": "where", 
      "name": "where351", 
      "inputs": [[716, 0, 0], [684, 0, 0], [668, 0, 0]]
    }, 
    {
      "op": "where", 
      "name": "where357", 
      "inputs": [[36, 742, 0], [65, 0, 0], [717, 0, 0]]
    }, 
    {
      "op": "FullyConnected", 
      "name": "lstm_l_0t13_h2h", 
      "attrs": {"num_hidden": "160"}, 
      "inputs": [[718, 0, 0], [67, 0, 0], [68, 0, 0]]
    }, 
    {
      "op": "elemwise_add", 
      "name": "_plus152", 
      "inputs": [[714, 0, 0], [719, 0, 0]]
    }, 
    {
      "op": "SliceChannel", 
      "name": "lstm_l_0t13_slice", 
      "attrs": {"num_outputs": "4"}, 
      "inputs": [[720, 0, 0]]
    }, 
    {
      "op": "Activation", 
      "name": "lstm_l_0t13_o", 
      "attrs": {"act_type": "sigmoid"}, 
      "inputs": [[721, 3, 0]]
    }, 
    {
      "op": "Activation", 
      "name": "lstm_l_0t13_f", 
      "attrs": {"act_type": "sigmoid"}, 
      "inputs": [[721, 1, 0]]
    }, 
    {
      "op": "ones_like", 
      "name": "ones_like153", 
      "inputs": [[682, 0, 0]]
    }, 
    {
      "op": "Dropout", 
      "name": "dropout149", 
      "attrs": {"p": "0.1"}, 
      "inputs": [[724, 0, 0]]
    }, 
    {
      "op": "where", 
      "name": "where352", 
      "inputs": [[725, 0, 0], [682, 0, 0], [677, 0, 0]]
    }, 
    {
      "op": "where", 
      "name": "where358", 
      "inputs": [[36, 742, 0], [74, 0, 0], [726, 0, 0]]
    }, 
    {
      "op": "elemwise_mul", 
      "name": "_mul577", 
      "inputs": [[723, 0, 0], [727, 0, 0]]
    }, 
    {
      "op": "Activation", 
      "name": "lstm_l_0t13_i", 
      "attrs": {"act_type": "sigmoid"}, 
      "inputs": [[721, 0, 0]]
    }, 
    {
      "op": "Activation", 
      "name": "lstm_l_0t13_c", 
      "attrs": {"act_type": "tanh"}, 
      "inputs": [[721, 2, 0]]
    }, 
    {
      "op": "elemwise_mul", 
      "name": "_mul578", 
      "inputs": [[729, 0, 0], [730, 0, 0]]
    }, 
    {
      "op": "elemwise_add", 
      "name": "lstm_l_0t13_state", 
      "inputs": [[728, 0, 0], [731, 0, 0]]
    }, 
    {
      "op": "Activation", 
      "name": "activation152", 
      "attrs": {"act_type": "tanh"}, 
      "inputs": [[732, 0, 0]]
    }, 
    {
      "op": "elemwise_mul", 
      "name": "lstm_l_0t13_out", 
      "inputs": [[722, 0, 0], [733, 0, 0]]
    }, 
    {
      "op": "FullyConnected", 
      "name": "lstm_l_1t13_i2h", 
      "attrs": {"num_hidden": "160"}, 
      "inputs": [[734, 0, 0], [83, 0, 0], [84, 0, 0]]
    }, 
    {
      "op": "ones_like", 
      "name": "ones_like154", 
      "inputs": [[705, 0, 0]]
    }, 
    {
      "op": "Dropout", 
      "name": "dropout150", 
      "attrs": {"p": "0.1"}, 
      "inputs": [[736, 0, 0]]
    }, 
    {
      "op": "where", 
      "name": "where353", 
      "inputs": [[737, 0, 0], [705, 0, 0], [689, 0, 0]]
    }, 
    {
      "op": "where", 
      "name": "where359", 
      "inputs": [[36, 742, 0], [86, 0, 0], [738, 0, 0]]
    }, 
    {
      "op": "FullyConnected", 
      "name": "lstm_l_1t13_h2h", 
      "attrs": {"num_hidden": "160"}, 
      "inputs": [[739, 0, 0], [88, 0, 0], [89, 0, 0]]
    }, 
    {
      "op": "elemwise_add", 
      "name": "_plus153", 
      "inputs": [[735, 0, 0], [740, 0, 0]]
    }, 
    {
      "op": "SliceChannel", 
      "name": "lstm_l_1t13_slice", 
      "attrs": {"num_outputs": "4"}, 
      "inputs": [[741, 0, 0]]
    }, 
    {
      "op": "Activation", 
      "name": "lstm_l_1t13_o", 
      "attrs": {"act_type": "sigmoid"}, 
      "inputs": [[742, 3, 0]]
    }, 
    {
      "op": "Activation", 
      "name": "lstm_l_1t13_f", 
      "attrs": {"act_type": "sigmoid"}, 
      "inputs": [[742, 1, 0]]
    }, 
    {
      "op": "ones_like", 
      "name": "ones_like155", 
      "inputs": [[703, 0, 0]]
    }, 
    {
      "op": "Dropout", 
      "name": "dropout151", 
      "attrs": {"p": "0.1"}, 
      "inputs": [[745, 0, 0]]
    }, 
    {
      "op": "where", 
      "name": "where354", 
      "inputs": [[746, 0, 0], [703, 0, 0], [698, 0, 0]]
    }, 
    {
      "op": "where", 
      "name": "where360", 
      "inputs": [[36, 742, 0], [95, 0, 0], [747, 0, 0]]
    }, 
    {
      "op": "elemwise_mul", 
      "name": "_mul579", 
      "inputs": [[744, 0, 0], [748, 0, 0]]
    }, 
    {
      "op": "Activation", 
      "name": "lstm_l_1t13_i", 
      "attrs": {"act_type": "sigmoid"}, 
      "inputs": [[742, 0, 0]]
    }, 
    {
      "op": "Activation", 
      "name": "lstm_l_1t13_c", 
      "attrs": {"act_type": "tanh"}, 
      "inputs": [[742, 2, 0]]
    }, 
    {
      "op": "elemwise_mul", 
      "name": "_mul580", 
      "inputs": [[750, 0, 0], [751, 0, 0]]
    }, 
    {
      "op": "elemwise_add", 
      "name": "lstm_l_1t13_state", 
      "inputs": [[749, 0, 0], [752, 0, 0]]
    }, 
    {
      "op": "Activation", 
      "name": "activation153", 
      "attrs": {"act_type": "tanh"}, 
      "inputs": [[753, 0, 0]]
    }, 
    {
      "op": "elemwise_mul", 
      "name": "lstm_l_1t13_out", 
      "inputs": [[743, 0, 0], [754, 0, 0]]
    }, 
    {
      "op": "elemwise_add", 
      "name": "lstm_l_1t13_out_plus_residual", 
      "inputs": [[755, 0, 0], [734, 0, 0]]
    }, 
    {
      "op": "FullyConnected", 
      "name": "fullyconnected114", 
      "attrs": {"num_hidden": "1"}, 
      "inputs": [[756, 0, 0], [105, 0, 0], [106, 0, 0]]
    }, 
    {
      "op": "elemwise_mul", 
      "name": "_mul587", 
      "inputs": [[757, 0, 0], [30, 0, 0]]
    }, 
    {
      "op": "where", 
      "name": "where365", 
      "inputs": [[36, 742, 0], [45, 0, 0], [758, 0, 0]]
    }, 
    {
      "op": "where", 
      "name": "where366", 
      "inputs": [[15, 742, 0], [10, 742, 0], [759, 0, 0]]
    }, 
    {
      "op": "Concat", 
      "name": "concat87", 
      "attrs": {
        "dim": "1", 
        "num_args": "27"
      }, 
      "inputs": [
        [760, 0, 0], 
        [710, 0, 0], 
        [660, 0, 0], 
        [610, 0, 0], 
        [560, 0, 0], 
        [510, 0, 0], 
        [460, 0, 0], 
        [410, 0, 0], 
        [160, 0, 0], 
        [110, 0, 0], 
        [10, 728, 0], 
        [10, 723, 0], 
        [10, 722, 0], 
        [10, 721, 0], 
        [10, 716, 0], 
        [10, 715, 0], 
        [10, 714, 0], 
        [10, 713, 0], 
        [10, 712, 0], 
        [10, 687, 0], 
        [10, 659, 0], 
        [10, 380, 0], 
        [10, 379, 0], 
        [10, 378, 0], 
        [10, 16, 0], 
        [10, 15, 0], 
        [10, 14, 0]
      ]
    }, 
    {
      "op": "broadcast_div", 
      "name": "broadcast_div41", 
      "inputs": [[761, 0, 0], [30, 0, 0]]
    }, 
    {
      "op": "Concat", 
      "name": "concat88", 
      "attrs": {
        "dim": "1", 
        "num_args": "3"
      }, 
      "inputs": [[39, 743, 0], [32, 0, 0], [762, 0, 0]]
    }, 
    {
      "op": "FullyConnected", 
      "name": "lstm_l_0t14_i2h", 
      "attrs": {"num_hidden": "160"}, 
      "inputs": [[763, 0, 0], [62, 0, 0], [63, 0, 0]]
    }, 
    {
      "op": "ones_like", 
      "name": "ones_like156", 
      "inputs": [[734, 0, 0]]
    }, 
    {
      "op": "Dropout", 
      "name": "dropout152", 
      "attrs": {"p": "0.1"}, 
      "inputs": [[765, 0, 0]]
    }, 
    {
      "op": "where", 
      "name": "where361", 
      "inputs": [[766, 0, 0], [734, 0, 0], [718, 0, 0]]
    }, 
    {
      "op": "where", 
      "name": "where367", 
      "inputs": [[36, 743, 0], [65, 0, 0], [767, 0, 0]]
    }, 
    {
      "op": "FullyConnected", 
      "name": "lstm_l_0t14_h2h", 
      "attrs": {"num_hidden": "160"}, 
      "inputs": [[768, 0, 0], [67, 0, 0], [68, 0, 0]]
    }, 
    {
      "op": "elemwise_add", 
      "name": "_plus156", 
      "inputs": [[764, 0, 0], [769, 0, 0]]
    }, 
    {
      "op": "SliceChannel", 
      "name": "lstm_l_0t14_slice", 
      "attrs": {"num_outputs": "4"}, 
      "inputs": [[770, 0, 0]]
    }, 
    {
      "op": "Activation", 
      "name": "lstm_l_0t14_o", 
      "attrs": {"act_type": "sigmoid"}, 
      "inputs": [[771, 3, 0]]
    }, 
    {
      "op": "Activation", 
      "name": "lstm_l_0t14_f", 
      "attrs": {"act_type": "sigmoid"}, 
      "inputs": [[771, 1, 0]]
    }, 
    {
      "op": "ones_like", 
      "name": "ones_like157", 
      "inputs": [[732, 0, 0]]
    }, 
    {
      "op": "Dropout", 
      "name": "dropout153", 
      "attrs": {"p": "0.1"}, 
      "inputs": [[774, 0, 0]]
    }, 
    {
      "op": "where", 
      "name": "where362", 
      "inputs": [[775, 0, 0], [732, 0, 0], [727, 0, 0]]
    }, 
    {
      "op": "where", 
      "name": "where368", 
      "inputs": [[36, 743, 0], [74, 0, 0], [776, 0, 0]]
    }, 
    {
      "op": "elemwise_mul", 
      "name": "_mul592", 
      "inputs": [[773, 0, 0], [777, 0, 0]]
    }, 
    {
      "op": "Activation", 
      "name": "lstm_l_0t14_i", 
      "attrs": {"act_type": "sigmoid"}, 
      "inputs": [[771, 0, 0]]
    }, 
    {
      "op": "Activation", 
      "name": "lstm_l_0t14_c", 
      "attrs": {"act_type": "tanh"}, 
      "inputs": [[771, 2, 0]]
    }, 
    {
      "op": "elemwise_mul", 
      "name": "_mul593", 
      "inputs": [[779, 0, 0], [780, 0, 0]]
    }, 
    {
      "op": "elemwise_add", 
      "name": "lstm_l_0t14_state", 
      "inputs": [[778, 0, 0], [781, 0, 0]]
    }, 
    {
      "op": "Activation", 
      "name": "activation156", 
      "attrs": {"act_type": "tanh"}, 
      "inputs": [[782, 0, 0]]
    }, 
    {
      "op": "elemwise_mul", 
      "name": "lstm_l_0t14_out", 
      "inputs": [[772, 0, 0], [783, 0, 0]]
    }, 
    {
      "op": "FullyConnected", 
      "name": "lstm_l_1t14_i2h", 
      "attrs": {"num_hidden": "160"}, 
      "inputs": [[784, 0, 0], [83, 0, 0], [84, 0, 0]]
    }, 
    {
      "op": "ones_like", 
      "name": "ones_like158", 
      "inputs": [[755, 0, 0]]
    }, 
    {
      "op": "Dropout", 
      "name": "dropout154", 
      "attrs": {"p": "0.1"}, 
      "inputs": [[786, 0, 0]]
    }, 
    {
      "op": "where", 
      "name": "where363", 
      "inputs": [[787, 0, 0], [755, 0, 0], [739, 0, 0]]
    }, 
    {
      "op": "where", 
      "name": "where369", 
      "inputs": [[36, 743, 0], [86, 0, 0], [788, 0, 0]]
    }, 
    {
      "op": "FullyConnected", 
      "name": "lstm_l_1t14_h2h", 
      "attrs": {"num_hidden": "160"}, 
      "inputs": [[789, 0, 0], [88, 0, 0], [89, 0, 0]]
    }, 
    {
      "op": "elemwise_add", 
      "name": "_plus157", 
      "inputs": [[785, 0, 0], [790, 0, 0]]
    }, 
    {
      "op": "SliceChannel", 
      "name": "lstm_l_1t14_slice", 
      "attrs": {"num_outputs": "4"}, 
      "inputs": [[791, 0, 0]]
    }, 
    {
      "op": "Activation", 
      "name": "lstm_l_1t14_o", 
      "attrs": {"act_type": "sigmoid"}, 
      "inputs": [[792, 3, 0]]
    }, 
    {
      "op": "Activation", 
      "name": "lstm_l_1t14_f", 
      "attrs": {"act_type": "sigmoid"}, 
      "inputs": [[792, 1, 0]]
    }, 
    {
      "op": "ones_like", 
      "name": "ones_like159", 
      "inputs": [[753, 0, 0]]
    }, 
    {
      "op": "Dropout", 
      "name": "dropout155", 
      "attrs": {"p": "0.1"}, 
      "inputs": [[795, 0, 0]]
    }, 
    {
      "op": "where", 
      "name": "where364", 
      "inputs": [[796, 0, 0], [753, 0, 0], [748, 0, 0]]
    }, 
    {
      "op": "where", 
      "name": "where370", 
      "inputs": [[36, 743, 0], [95, 0, 0], [797, 0, 0]]
    }, 
    {
      "op": "elemwise_mul", 
      "name": "_mul594", 
      "inputs": [[794, 0, 0], [798, 0, 0]]
    }, 
    {
      "op": "Activation", 
      "name": "lstm_l_1t14_i", 
      "attrs": {"act_type": "sigmoid"}, 
      "inputs": [[792, 0, 0]]
    }, 
    {
      "op": "Activation", 
      "name": "lstm_l_1t14_c", 
      "attrs": {"act_type": "tanh"}, 
      "inputs": [[792, 2, 0]]
    }, 
    {
      "op": "elemwise_mul", 
      "name": "_mul595", 
      "inputs": [[800, 0, 0], [801, 0, 0]]
    }, 
    {
      "op": "elemwise_add", 
      "name": "lstm_l_1t14_state", 
      "inputs": [[799, 0, 0], [802, 0, 0]]
    }, 
    {
      "op": "Activation", 
      "name": "activation157", 
      "attrs": {"act_type": "tanh"}, 
      "inputs": [[803, 0, 0]]
    }, 
    {
      "op": "elemwise_mul", 
      "name": "lstm_l_1t14_out", 
      "inputs": [[793, 0, 0], [804, 0, 0]]
    }, 
    {
      "op": "elemwise_add", 
      "name": "lstm_l_1t14_out_plus_residual", 
      "inputs": [[805, 0, 0], [784, 0, 0]]
    }, 
    {
      "op": "FullyConnected", 
      "name": "fullyconnected117", 
      "attrs": {"num_hidden": "1"}, 
      "inputs": [[806, 0, 0], [105, 0, 0], [106, 0, 0]]
    }, 
    {
      "op": "elemwise_mul", 
      "name": "_mul602", 
      "inputs": [[807, 0, 0], [30, 0, 0]]
    }, 
    {
      "op": "where", 
      "name": "where375", 
      "inputs": [[36, 743, 0], [44, 0, 0], [808, 0, 0]]
    }, 
    {
      "op": "where", 
      "name": "where376", 
      "inputs": [[15, 743, 0], [10, 743, 0], [809, 0, 0]]
    }, 
    {
      "op": "Concat", 
      "name": "concat89", 
      "attrs": {
        "dim": "1", 
        "num_args": "27"
      }, 
      "inputs": [
        [810, 0, 0], 
        [760, 0, 0], 
        [710, 0, 0], 
        [660, 0, 0], 
        [610, 0, 0], 
        [560, 0, 0], 
        [510, 0, 0], 
        [460, 0, 0], 
        [210, 0, 0], 
        [160, 0, 0], 
        [110, 0, 0], 
        [10, 724, 0], 
        [10, 723, 0], 
        [10, 722, 0], 
        [10, 717, 0], 
        [10, 716, 0], 
        [10, 715, 0], 
        [10, 714, 0], 
        [10, 713, 0], 
        [10, 688, 0], 
        [10, 660, 0], 
        [10, 381, 0], 
        [10, 380, 0], 
        [10, 379, 0], 
        [10, 17, 0], 
        [10, 16, 0], 
        [10, 15, 0]
      ]
    }, 
    {
      "op": "broadcast_div", 
      "name": "broadcast_div42", 
      "inputs": [[811, 0, 0], [30, 0, 0]]
    }, 
    {
      "op": "Concat", 
      "name": "concat90", 
      "attrs": {
        "dim": "1", 
        "num_args": "3"
      }, 
      "inputs": [[39, 744, 0], [32, 0, 0], [812, 0, 0]]
    }, 
    {
      "op": "FullyConnected", 
      "name": "lstm_l_0t15_i2h", 
      "attrs": {"num_hidden": "160"}, 
      "inputs": [[813, 0, 0], [62, 0, 0], [63, 0, 0]]
    }, 
    {
      "op": "ones_like", 
      "name": "ones_like160", 
      "inputs": [[784, 0, 0]]
    }, 
    {
      "op": "Dropout", 
      "name": "dropout156", 
      "attrs": {"p": "0.1"}, 
      "inputs": [[815, 0, 0]]
    }, 
    {
      "op": "where", 
      "name": "where371", 
      "inputs": [[816, 0, 0], [784, 0, 0], [768, 0, 0]]
    }, 
    {
      "op": "where", 
      "name": "where377", 
      "inputs": [[36, 744, 0], [65, 0, 0], [817, 0, 0]]
    }, 
    {
      "op": "FullyConnected", 
      "name": "lstm_l_0t15_h2h", 
      "attrs": {"num_hidden": "160"}, 
      "inputs": [[818, 0, 0], [67, 0, 0], [68, 0, 0]]
    }, 
    {
      "op": "elemwise_add", 
      "name": "_plus160", 
      "inputs": [[814, 0, 0], [819, 0, 0]]
    }, 
    {
      "op": "SliceChannel", 
      "name": "lstm_l_0t15_slice", 
      "attrs": {"num_outputs": "4"}, 
      "inputs": [[820, 0, 0]]
    }, 
    {
      "op": "Activation", 
      "name": "lstm_l_0t15_o", 
      "attrs": {"act_type": "sigmoid"}, 
      "inputs": [[821, 3, 0]]
    }, 
    {
      "op": "Activation", 
      "name": "lstm_l_0t15_f", 
      "attrs": {"act_type": "sigmoid"}, 
      "inputs": [[821, 1, 0]]
    }, 
    {
      "op": "ones_like", 
      "name": "ones_like161", 
      "inputs": [[782, 0, 0]]
    }, 
    {
      "op": "Dropout", 
      "name": "dropout157", 
      "attrs": {"p": "0.1"}, 
      "inputs": [[824, 0, 0]]
    }, 
    {
      "op": "where", 
      "name": "where372", 
      "inputs": [[825, 0, 0], [782, 0, 0], [777, 0, 0]]
    }, 
    {
      "op": "where", 
      "name": "where378", 
      "inputs": [[36, 744, 0], [74, 0, 0], [826, 0, 0]]
    }, 
    {
      "op": "elemwise_mul", 
      "name": "_mul607", 
      "inputs": [[823, 0, 0], [827, 0, 0]]
    }, 
    {
      "op": "Activation", 
      "name": "lstm_l_0t15_i", 
      "attrs": {"act_type": "sigmoid"}, 
      "inputs": [[821, 0, 0]]
    }, 
    {
      "op": "Activation", 
      "name": "lstm_l_0t15_c", 
      "attrs": {"act_type": "tanh"}, 
      "inputs": [[821, 2, 0]]
    }, 
    {
      "op": "elemwise_mul", 
      "name": "_mul608", 
      "inputs": [[829, 0, 0], [830, 0, 0]]
    }, 
    {
      "op": "elemwise_add", 
      "name": "lstm_l_0t15_state", 
      "inputs": [[828, 0, 0], [831, 0, 0]]
    }, 
    {
      "op": "Activation", 
      "name": "activation160", 
      "attrs": {"act_type": "tanh"}, 
      "inputs": [[832, 0, 0]]
    }, 
    {
      "op": "elemwise_mul", 
      "name": "lstm_l_0t15_out", 
      "inputs": [[822, 0, 0], [833, 0, 0]]
    }, 
    {
      "op": "FullyConnected", 
      "name": "lstm_l_1t15_i2h", 
      "attrs": {"num_hidden": "160"}, 
      "inputs": [[834, 0, 0], [83, 0, 0], [84, 0, 0]]
    }, 
    {
      "op": "ones_like", 
      "name": "ones_like162", 
      "inputs": [[805, 0, 0]]
    }, 
    {
      "op": "Dropout", 
      "name": "dropout158", 
      "attrs": {"p": "0.1"}, 
      "inputs": [[836, 0, 0]]
    }, 
    {
      "op": "where", 
      "name": "where373", 
      "inputs": [[837, 0, 0], [805, 0, 0], [789, 0, 0]]
    }, 
    {
      "op": "where", 
      "name": "where379", 
      "inputs": [[36, 744, 0], [86, 0, 0], [838, 0, 0]]
    }, 
    {
      "op": "FullyConnected", 
      "name": "lstm_l_1t15_h2h", 
      "attrs": {"num_hidden": "160"}, 
      "inputs": [[839, 0, 0], [88, 0, 0], [89, 0, 0]]
    }, 
    {
      "op": "elemwise_add", 
      "name": "_plus161", 
      "inputs": [[835, 0, 0], [840, 0, 0]]
    }, 
    {
      "op": "SliceChannel", 
      "name": "lstm_l_1t15_slice", 
      "attrs": {"num_outputs": "4"}, 
      "inputs": [[841, 0, 0]]
    }, 
    {
      "op": "Activation", 
      "name": "lstm_l_1t15_o", 
      "attrs": {"act_type": "sigmoid"}, 
      "inputs": [[842, 3, 0]]
    }, 
    {
      "op": "Activation", 
      "name": "lstm_l_1t15_f", 
      "attrs": {"act_type": "sigmoid"}, 
      "inputs": [[842, 1, 0]]
    }, 
    {
      "op": "ones_like", 
      "name": "ones_like163", 
      "inputs": [[803, 0, 0]]
    }, 
    {
      "op": "Dropout", 
      "name": "dropout159", 
      "attrs": {"p": "0.1"}, 
      "inputs": [[845, 0, 0]]
    }, 
    {
      "op": "where", 
      "name": "where374", 
      "inputs": [[846, 0, 0], [803, 0, 0], [798, 0, 0]]
    }, 
    {
      "op": "where", 
      "name": "where380", 
      "inputs": [[36, 744, 0], [95, 0, 0], [847, 0, 0]]
    }, 
    {
      "op": "elemwise_mul", 
      "name": "_mul609", 
      "inputs": [[844, 0, 0], [848, 0, 0]]
    }, 
    {
      "op": "Activation", 
      "name": "lstm_l_1t15_i", 
      "attrs": {"act_type": "sigmoid"}, 
      "inputs": [[842, 0, 0]]
    }, 
    {
      "op": "Activation", 
      "name": "lstm_l_1t15_c", 
      "attrs": {"act_type": "tanh"}, 
      "inputs": [[842, 2, 0]]
    }, 
    {
      "op": "elemwise_mul", 
      "name": "_mul610", 
      "inputs": [[850, 0, 0], [851, 0, 0]]
    }, 
    {
      "op": "elemwise_add", 
      "name": "lstm_l_1t15_state", 
      "inputs": [[849, 0, 0], [852, 0, 0]]
    }, 
    {
      "op": "Activation", 
      "name": "activation161", 
      "attrs": {"act_type": "tanh"}, 
      "inputs": [[853, 0, 0]]
    }, 
    {
      "op": "elemwise_mul", 
      "name": "lstm_l_1t15_out", 
      "inputs": [[843, 0, 0], [854, 0, 0]]
    }, 
    {
      "op": "elemwise_add", 
      "name": "lstm_l_1t15_out_plus_residual", 
      "inputs": [[855, 0, 0], [834, 0, 0]]
    }, 
    {
      "op": "FullyConnected", 
      "name": "fullyconnected120", 
      "attrs": {"num_hidden": "1"}, 
      "inputs": [[856, 0, 0], [105, 0, 0], [106, 0, 0]]
    }, 
    {
      "op": "elemwise_mul", 
      "name": "_mul617", 
      "inputs": [[857, 0, 0], [30, 0, 0]]
    }, 
    {
      "op": "where", 
      "name": "where385", 
      "inputs": [[36, 744, 0], [43, 0, 0], [858, 0, 0]]
    }, 
    {
      "op": "where", 
      "name": "where386", 
      "inputs": [[15, 744, 0], [10, 744, 0], [859, 0, 0]]
    }, 
    {
      "op": "Concat", 
      "name": "concat91", 
      "attrs": {
        "dim": "1", 
        "num_args": "27"
      }, 
      "inputs": [
        [860, 0, 0], 
        [810, 0, 0], 
        [760, 0, 0], 
        [710, 0, 0], 
        [660, 0, 0], 
        [610, 0, 0], 
        [560, 0, 0], 
        [510, 0, 0], 
        [260, 0, 0], 
        [210, 0, 0], 
        [160, 0, 0], 
        [10, 725, 0], 
        [10, 724, 0], 
        [10, 723, 0], 
        [10, 718, 0], 
        [10, 717, 0], 
        [10, 716, 0], 
        [10, 715, 0], 
        [10, 714, 0], 
        [10, 689, 0], 
        [10, 661, 0], 
        [10, 382, 0], 
        [10, 381, 0], 
        [10, 380, 0], 
        [10, 18, 0], 
        [10, 17, 0], 
        [10, 16, 0]
      ]
    }, 
    {
      "op": "broadcast_div", 
      "name": "broadcast_div43", 
      "inputs": [[861, 0, 0], [30, 0, 0]]
    }, 
    {
      "op": "Concat", 
      "name": "concat92", 
      "attrs": {
        "dim": "1", 
        "num_args": "3"
      }, 
      "inputs": [[39, 745, 0], [32, 0, 0], [862, 0, 0]]
    }, 
    {
      "op": "FullyConnected", 
      "name": "lstm_l_0t16_i2h", 
      "attrs": {"num_hidden": "160"}, 
      "inputs": [[863, 0, 0], [62, 0, 0], [63, 0, 0]]
    }, 
    {
      "op": "ones_like", 
      "name": "ones_like164", 
      "inputs": [[834, 0, 0]]
    }, 
    {
      "op": "Dropout", 
      "name": "dropout160", 
      "attrs": {"p": "0.1"}, 
      "inputs": [[865, 0, 0]]
    }, 
    {
      "op": "where", 
      "name": "where381", 
      "inputs": [[866, 0, 0], [834, 0, 0], [818, 0, 0]]
    }, 
    {
      "op": "where", 
      "name": "where387", 
      "inputs": [[36, 745, 0], [65, 0, 0], [867, 0, 0]]
    }, 
    {
      "op": "FullyConnected", 
      "name": "lstm_l_0t16_h2h", 
      "attrs": {"num_hidden": "160"}, 
      "inputs": [[868, 0, 0], [67, 0, 0], [68, 0, 0]]
    }, 
    {
      "op": "elemwise_add", 
      "name": "_plus164", 
      "inputs": [[864, 0, 0], [869, 0, 0]]
    }, 
    {
      "op": "SliceChannel", 
      "name": "lstm_l_0t16_slice", 
      "attrs": {"num_outputs": "4"}, 
      "inputs": [[870, 0, 0]]
    }, 
    {
      "op": "Activation", 
      "name": "lstm_l_0t16_o", 
      "attrs": {"act_type": "sigmoid"}, 
      "inputs": [[871, 3, 0]]
    }, 
    {
      "op": "Activation", 
      "name": "lstm_l_0t16_f", 
      "attrs": {"act_type": "sigmoid"}, 
      "inputs": [[871, 1, 0]]
    }, 
    {
      "op": "ones_like", 
      "name": "ones_like165", 
      "inputs": [[832, 0, 0]]
    }, 
    {
      "op": "Dropout", 
      "name": "dropout161", 
      "attrs": {"p": "0.1"}, 
      "inputs": [[874, 0, 0]]
    }, 
    {
      "op": "where", 
      "name": "where382", 
      "inputs": [[875, 0, 0], [832, 0, 0], [827, 0, 0]]
    }, 
    {
      "op": "where", 
      "name": "where388", 
      "inputs": [[36, 745, 0], [74, 0, 0], [876, 0, 0]]
    }, 
    {
      "op": "elemwise_mul", 
      "name": "_mul622", 
      "inputs": [[873, 0, 0], [877, 0, 0]]
    }, 
    {
      "op": "Activation", 
      "name": "lstm_l_0t16_i", 
      "attrs": {"act_type": "sigmoid"}, 
      "inputs": [[871, 0, 0]]
    }, 
    {
      "op": "Activation", 
      "name": "lstm_l_0t16_c", 
      "attrs": {"act_type": "tanh"}, 
      "inputs": [[871, 2, 0]]
    }, 
    {
      "op": "elemwise_mul", 
      "name": "_mul623", 
      "inputs": [[879, 0, 0], [880, 0, 0]]
    }, 
    {
      "op": "elemwise_add", 
      "name": "lstm_l_0t16_state", 
      "inputs": [[878, 0, 0], [881, 0, 0]]
    }, 
    {
      "op": "Activation", 
      "name": "activation164", 
      "attrs": {"act_type": "tanh"}, 
      "inputs": [[882, 0, 0]]
    }, 
    {
      "op": "elemwise_mul", 
      "name": "lstm_l_0t16_out", 
      "inputs": [[872, 0, 0], [883, 0, 0]]
    }, 
    {
      "op": "FullyConnected", 
      "name": "lstm_l_1t16_i2h", 
      "attrs": {"num_hidden": "160"}, 
      "inputs": [[884, 0, 0], [83, 0, 0], [84, 0, 0]]
    }, 
    {
      "op": "ones_like", 
      "name": "ones_like166", 
      "inputs": [[855, 0, 0]]
    }, 
    {
      "op": "Dropout", 
      "name": "dropout162", 
      "attrs": {"p": "0.1"}, 
      "inputs": [[886, 0, 0]]
    }, 
    {
      "op": "where", 
      "name": "where383", 
      "inputs": [[887, 0, 0], [855, 0, 0], [839, 0, 0]]
    }, 
    {
      "op": "where", 
      "name": "where389", 
      "inputs": [[36, 745, 0], [86, 0, 0], [888, 0, 0]]
    }, 
    {
      "op": "FullyConnected", 
      "name": "lstm_l_1t16_h2h", 
      "attrs": {"num_hidden": "160"}, 
      "inputs": [[889, 0, 0], [88, 0, 0], [89, 0, 0]]
    }, 
    {
      "op": "elemwise_add", 
      "name": "_plus165", 
      "inputs": [[885, 0, 0], [890, 0, 0]]
    }, 
    {
      "op": "SliceChannel", 
      "name": "lstm_l_1t16_slice", 
      "attrs": {"num_outputs": "4"}, 
      "inputs": [[891, 0, 0]]
    }, 
    {
      "op": "Activation", 
      "name": "lstm_l_1t16_o", 
      "attrs": {"act_type": "sigmoid"}, 
      "inputs": [[892, 3, 0]]
    }, 
    {
      "op": "Activation", 
      "name": "lstm_l_1t16_f", 
      "attrs": {"act_type": "sigmoid"}, 
      "inputs": [[892, 1, 0]]
    }, 
    {
      "op": "ones_like", 
      "name": "ones_like167", 
      "inputs": [[853, 0, 0]]
    }, 
    {
      "op": "Dropout", 
      "name": "dropout163", 
      "attrs": {"p": "0.1"}, 
      "inputs": [[895, 0, 0]]
    }, 
    {
      "op": "where", 
      "name": "where384", 
      "inputs": [[896, 0, 0], [853, 0, 0], [848, 0, 0]]
    }, 
    {
      "op": "where", 
      "name": "where390", 
      "inputs": [[36, 745, 0], [95, 0, 0], [897, 0, 0]]
    }, 
    {
      "op": "elemwise_mul", 
      "name": "_mul624", 
      "inputs": [[894, 0, 0], [898, 0, 0]]
    }, 
    {
      "op": "Activation", 
      "name": "lstm_l_1t16_i", 
      "attrs": {"act_type": "sigmoid"}, 
      "inputs": [[892, 0, 0]]
    }, 
    {
      "op": "Activation", 
      "name": "lstm_l_1t16_c", 
      "attrs": {"act_type": "tanh"}, 
      "inputs": [[892, 2, 0]]
    }, 
    {
      "op": "elemwise_mul", 
      "name": "_mul625", 
      "inputs": [[900, 0, 0], [901, 0, 0]]
    }, 
    {
      "op": "elemwise_add", 
      "name": "lstm_l_1t16_state", 
      "inputs": [[899, 0, 0], [902, 0, 0]]
    }, 
    {
      "op": "Activation", 
      "name": "activation165", 
      "attrs": {"act_type": "tanh"}, 
      "inputs": [[903, 0, 0]]
    }, 
    {
      "op": "elemwise_mul", 
      "name": "lstm_l_1t16_out", 
      "inputs": [[893, 0, 0], [904, 0, 0]]
    }, 
    {
      "op": "elemwise_add", 
      "name": "lstm_l_1t16_out_plus_residual", 
      "inputs": [[905, 0, 0], [884, 0, 0]]
    }, 
    {
      "op": "FullyConnected", 
      "name": "fullyconnected123", 
      "attrs": {"num_hidden": "1"}, 
      "inputs": [[906, 0, 0], [105, 0, 0], [106, 0, 0]]
    }, 
    {
      "op": "elemwise_mul", 
      "name": "_mul632", 
      "inputs": [[907, 0, 0], [30, 0, 0]]
    }, 
    {
      "op": "where", 
      "name": "where395", 
      "inputs": [[36, 745, 0], [42, 0, 0], [908, 0, 0]]
    }, 
    {
      "op": "where", 
      "name": "where396", 
      "inputs": [[15, 745, 0], [10, 745, 0], [909, 0, 0]]
    }, 
    {
      "op": "Concat", 
      "name": "concat93", 
      "attrs": {
        "dim": "1", 
        "num_args": "27"
      }, 
      "inputs": [
        [910, 0, 0], 
        [860, 0, 0], 
        [810, 0, 0], 
        [760, 0, 0], 
        [710, 0, 0], 
        [660, 0, 0], 
        [610, 0, 0], 
        [560, 0, 0], 
        [310, 0, 0], 
        [260, 0, 0], 
        [210, 0, 0], 
        [10, 726, 0], 
        [10, 725, 0], 
        [10, 724, 0], 
        [10, 719, 0], 
        [10, 718, 0], 
        [10, 717, 0], 
        [10, 716, 0], 
        [10, 715, 0], 
        [10, 690, 0], 
        [10, 662, 0], 
        [10, 383, 0], 
        [10, 382, 0], 
        [10, 381, 0], 
        [10, 19, 0], 
        [10, 18, 0], 
        [10, 17, 0]
      ]
    }, 
    {
      "op": "broadcast_div", 
      "name": "broadcast_div44", 
      "inputs": [[911, 0, 0], [30, 0, 0]]
    }, 
    {
      "op": "Concat", 
      "name": "concat94", 
      "attrs": {
        "dim": "1", 
        "num_args": "3"
      }, 
      "inputs": [[39, 746, 0], [32, 0, 0], [912, 0, 0]]
    }, 
    {
      "op": "FullyConnected", 
      "name": "lstm_l_0t17_i2h", 
      "attrs": {"num_hidden": "160"}, 
      "inputs": [[913, 0, 0], [62, 0, 0], [63, 0, 0]]
    }, 
    {
      "op": "ones_like", 
      "name": "ones_like168", 
      "inputs": [[884, 0, 0]]
    }, 
    {
      "op": "Dropout", 
      "name": "dropout164", 
      "attrs": {"p": "0.1"}, 
      "inputs": [[915, 0, 0]]
    }, 
    {
      "op": "where", 
      "name": "where391", 
      "inputs": [[916, 0, 0], [884, 0, 0], [868, 0, 0]]
    }, 
    {
      "op": "where", 
      "name": "where397", 
      "inputs": [[36, 746, 0], [65, 0, 0], [917, 0, 0]]
    }, 
    {
      "op": "FullyConnected", 
      "name": "lstm_l_0t17_h2h", 
      "attrs": {"num_hidden": "160"}, 
      "inputs": [[918, 0, 0], [67, 0, 0], [68, 0, 0]]
    }, 
    {
      "op": "elemwise_add", 
      "name": "_plus168", 
      "inputs": [[914, 0, 0], [919, 0, 0]]
    }, 
    {
      "op": "SliceChannel", 
      "name": "lstm_l_0t17_slice", 
      "attrs": {"num_outputs": "4"}, 
      "inputs": [[920, 0, 0]]
    }, 
    {
      "op": "Activation", 
      "name": "lstm_l_0t17_o", 
      "attrs": {"act_type": "sigmoid"}, 
      "inputs": [[921, 3, 0]]
    }, 
    {
      "op": "Activation", 
      "name": "lstm_l_0t17_f", 
      "attrs": {"act_type": "sigmoid"}, 
      "inputs": [[921, 1, 0]]
    }, 
    {
      "op": "ones_like", 
      "name": "ones_like169", 
      "inputs": [[882, 0, 0]]
    }, 
    {
      "op": "Dropout", 
      "name": "dropout165", 
      "attrs": {"p": "0.1"}, 
      "inputs": [[924, 0, 0]]
    }, 
    {
      "op": "where", 
      "name": "where392", 
      "inputs": [[925, 0, 0], [882, 0, 0], [877, 0, 0]]
    }, 
    {
      "op": "where", 
      "name": "where398", 
      "inputs": [[36, 746, 0], [74, 0, 0], [926, 0, 0]]
    }, 
    {
      "op": "elemwise_mul", 
      "name": "_mul637", 
      "inputs": [[923, 0, 0], [927, 0, 0]]
    }, 
    {
      "op": "Activation", 
      "name": "lstm_l_0t17_i", 
      "attrs": {"act_type": "sigmoid"}, 
      "inputs": [[921, 0, 0]]
    }, 
    {
      "op": "Activation", 
      "name": "lstm_l_0t17_c", 
      "attrs": {"act_type": "tanh"}, 
      "inputs": [[921, 2, 0]]
    }, 
    {
      "op": "elemwise_mul", 
      "name": "_mul638", 
      "inputs": [[929, 0, 0], [930, 0, 0]]
    }, 
    {
      "op": "elemwise_add", 
      "name": "lstm_l_0t17_state", 
      "inputs": [[928, 0, 0], [931, 0, 0]]
    }, 
    {
      "op": "Activation", 
      "name": "activation168", 
      "attrs": {"act_type": "tanh"}, 
      "inputs": [[932, 0, 0]]
    }, 
    {
      "op": "elemwise_mul", 
      "name": "lstm_l_0t17_out", 
      "inputs": [[922, 0, 0], [933, 0, 0]]
    }, 
    {
      "op": "FullyConnected", 
      "name": "lstm_l_1t17_i2h", 
      "attrs": {"num_hidden": "160"}, 
      "inputs": [[934, 0, 0], [83, 0, 0], [84, 0, 0]]
    }, 
    {
      "op": "ones_like", 
      "name": "ones_like170", 
      "inputs": [[905, 0, 0]]
    }, 
    {
      "op": "Dropout", 
      "name": "dropout166", 
      "attrs": {"p": "0.1"}, 
      "inputs": [[936, 0, 0]]
    }, 
    {
      "op": "where", 
      "name": "where393", 
      "inputs": [[937, 0, 0], [905, 0, 0], [889, 0, 0]]
    }, 
    {
      "op": "where", 
      "name": "where399", 
      "inputs": [[36, 746, 0], [86, 0, 0], [938, 0, 0]]
    }, 
    {
      "op": "FullyConnected", 
      "name": "lstm_l_1t17_h2h", 
      "attrs": {"num_hidden": "160"}, 
      "inputs": [[939, 0, 0], [88, 0, 0], [89, 0, 0]]
    }, 
    {
      "op": "elemwise_add", 
      "name": "_plus169", 
      "inputs": [[935, 0, 0], [940, 0, 0]]
    }, 
    {
      "op": "SliceChannel", 
      "name": "lstm_l_1t17_slice", 
      "attrs": {"num_outputs": "4"}, 
      "inputs": [[941, 0, 0]]
    }, 
    {
      "op": "Activation", 
      "name": "lstm_l_1t17_o", 
      "attrs": {"act_type": "sigmoid"}, 
      "inputs": [[942, 3, 0]]
    }, 
    {
      "op": "Activation", 
      "name": "lstm_l_1t17_f", 
      "attrs": {"act_type": "sigmoid"}, 
      "inputs": [[942, 1, 0]]
    }, 
    {
      "op": "ones_like", 
      "name": "ones_like171", 
      "inputs": [[903, 0, 0]]
    }, 
    {
      "op": "Dropout", 
      "name": "dropout167", 
      "attrs": {"p": "0.1"}, 
      "inputs": [[945, 0, 0]]
    }, 
    {
      "op": "where", 
      "name": "where394", 
      "inputs": [[946, 0, 0], [903, 0, 0], [898, 0, 0]]
    }, 
    {
      "op": "where", 
      "name": "where400", 
      "inputs": [[36, 746, 0], [95, 0, 0], [947, 0, 0]]
    }, 
    {
      "op": "elemwise_mul", 
      "name": "_mul639", 
      "inputs": [[944, 0, 0], [948, 0, 0]]
    }, 
    {
      "op": "Activation", 
      "name": "lstm_l_1t17_i", 
      "attrs": {"act_type": "sigmoid"}, 
      "inputs": [[942, 0, 0]]
    }, 
    {
      "op": "Activation", 
      "name": "lstm_l_1t17_c", 
      "attrs": {"act_type": "tanh"}, 
      "inputs": [[942, 2, 0]]
    }, 
    {
      "op": "elemwise_mul", 
      "name": "_mul640", 
      "inputs": [[950, 0, 0], [951, 0, 0]]
    }, 
    {
      "op": "elemwise_add", 
      "name": "lstm_l_1t17_state", 
      "inputs": [[949, 0, 0], [952, 0, 0]]
    }, 
    {
      "op": "Activation", 
      "name": "activation169", 
      "attrs": {"act_type": "tanh"}, 
      "inputs": [[953, 0, 0]]
    }, 
    {
      "op": "elemwise_mul", 
      "name": "lstm_l_1t17_out", 
      "inputs": [[943, 0, 0], [954, 0, 0]]
    }, 
    {
      "op": "elemwise_add", 
      "name": "lstm_l_1t17_out_plus_residual", 
      "inputs": [[955, 0, 0], [934, 0, 0]]
    }, 
    {
      "op": "FullyConnected", 
      "name": "fullyconnected126", 
      "attrs": {"num_hidden": "1"}, 
      "inputs": [[956, 0, 0], [105, 0, 0], [106, 0, 0]]
    }, 
    {
      "op": "elemwise_mul", 
      "name": "_mul647", 
      "inputs": [[957, 0, 0], [30, 0, 0]]
    }, 
    {
      "op": "where", 
      "name": "where405", 
      "inputs": [[36, 746, 0], [41, 0, 0], [958, 0, 0]]
    }, 
    {
      "op": "where", 
      "name": "where406", 
      "inputs": [[15, 746, 0], [10, 746, 0], [959, 0, 0]]
    }, 
    {
      "op": "Concat", 
      "name": "concat95", 
      "attrs": {
        "dim": "1", 
        "num_args": "27"
      }, 
      "inputs": [
        [960, 0, 0], 
        [910, 0, 0], 
        [860, 0, 0], 
        [810, 0, 0], 
        [760, 0, 0], 
        [710, 0, 0], 
        [660, 0, 0], 
        [610, 0, 0], 
        [360, 0, 0], 
        [310, 0, 0], 
        [260, 0, 0], 
        [10, 727, 0], 
        [10, 726, 0], 
        [10, 725, 0], 
        [10, 720, 0], 
        [10, 719, 0], 
        [10, 718, 0], 
        [10, 717, 0], 
        [10, 716, 0], 
        [10, 691, 0], 
        [10, 663, 0], 
        [10, 384, 0], 
        [10, 383, 0], 
        [10, 382, 0], 
        [10, 20, 0], 
        [10, 19, 0], 
        [10, 18, 0]
      ]
    }, 
    {
      "op": "broadcast_div", 
      "name": "broadcast_div45", 
      "inputs": [[961, 0, 0], [30, 0, 0]]
    }, 
    {
      "op": "Concat", 
      "name": "concat96", 
      "attrs": {
        "dim": "1", 
        "num_args": "3"
      }, 
      "inputs": [[39, 747, 0], [32, 0, 0], [962, 0, 0]]
    }, 
    {
      "op": "FullyConnected", 
      "name": "lstm_l_0t18_i2h", 
      "attrs": {"num_hidden": "160"}, 
      "inputs": [[963, 0, 0], [62, 0, 0], [63, 0, 0]]
    }, 
    {
      "op": "ones_like", 
      "name": "ones_like172", 
      "inputs": [[934, 0, 0]]
    }, 
    {
      "op": "Dropout", 
      "name": "dropout168", 
      "attrs": {"p": "0.1"}, 
      "inputs": [[965, 0, 0]]
    }, 
    {
      "op": "where", 
      "name": "where401", 
      "inputs": [[966, 0, 0], [934, 0, 0], [918, 0, 0]]
    }, 
    {
      "op": "where", 
      "name": "where407", 
      "inputs": [[36, 747, 0], [65, 0, 0], [967, 0, 0]]
    }, 
    {
      "op": "FullyConnected", 
      "name": "lstm_l_0t18_h2h", 
      "attrs": {"num_hidden": "160"}, 
      "inputs": [[968, 0, 0], [67, 0, 0], [68, 0, 0]]
    }, 
    {
      "op": "elemwise_add", 
      "name": "_plus172", 
      "inputs": [[964, 0, 0], [969, 0, 0]]
    }, 
    {
      "op": "SliceChannel", 
      "name": "lstm_l_0t18_slice", 
      "attrs": {"num_outputs": "4"}, 
      "inputs": [[970, 0, 0]]
    }, 
    {
      "op": "Activation", 
      "name": "lstm_l_0t18_o", 
      "attrs": {"act_type": "sigmoid"}, 
      "inputs": [[971, 3, 0]]
    }, 
    {
      "op": "Activation", 
      "name": "lstm_l_0t18_f", 
      "attrs": {"act_type": "sigmoid"}, 
      "inputs": [[971, 1, 0]]
    }, 
    {
      "op": "ones_like", 
      "name": "ones_like173", 
      "inputs": [[932, 0, 0]]
    }, 
    {
      "op": "Dropout", 
      "name": "dropout169", 
      "attrs": {"p": "0.1"}, 
      "inputs": [[974, 0, 0]]
    }, 
    {
      "op": "where", 
      "name": "where402", 
      "inputs": [[975, 0, 0], [932, 0, 0], [927, 0, 0]]
    }, 
    {
      "op": "where", 
      "name": "where408", 
      "inputs": [[36, 747, 0], [74, 0, 0], [976, 0, 0]]
    }, 
    {
      "op": "elemwise_mul", 
      "name": "_mul652", 
      "inputs": [[973, 0, 0], [977, 0, 0]]
    }, 
    {
      "op": "Activation", 
      "name": "lstm_l_0t18_i", 
      "attrs": {"act_type": "sigmoid"}, 
      "inputs": [[971, 0, 0]]
    }, 
    {
      "op": "Activation", 
      "name": "lstm_l_0t18_c", 
      "attrs": {"act_type": "tanh"}, 
      "inputs": [[971, 2, 0]]
    }, 
    {
      "op": "elemwise_mul", 
      "name": "_mul653", 
      "inputs": [[979, 0, 0], [980, 0, 0]]
    }, 
    {
      "op": "elemwise_add", 
      "name": "lstm_l_0t18_state", 
      "inputs": [[978, 0, 0], [981, 0, 0]]
    }, 
    {
      "op": "Activation", 
      "name": "activation172", 
      "attrs": {"act_type": "tanh"}, 
      "inputs": [[982, 0, 0]]
    }, 
    {
      "op": "elemwise_mul", 
      "name": "lstm_l_0t18_out", 
      "inputs": [[972, 0, 0], [983, 0, 0]]
    }, 
    {
      "op": "FullyConnected", 
      "name": "lstm_l_1t18_i2h", 
      "attrs": {"num_hidden": "160"}, 
      "inputs": [[984, 0, 0], [83, 0, 0], [84, 0, 0]]
    }, 
    {
      "op": "ones_like", 
      "name": "ones_like174", 
      "inputs": [[955, 0, 0]]
    }, 
    {
      "op": "Dropout", 
      "name": "dropout170", 
      "attrs": {"p": "0.1"}, 
      "inputs": [[986, 0, 0]]
    }, 
    {
      "op": "where", 
      "name": "where403", 
      "inputs": [[987, 0, 0], [955, 0, 0], [939, 0, 0]]
    }, 
    {
      "op": "where", 
      "name": "where409", 
      "inputs": [[36, 747, 0], [86, 0, 0], [988, 0, 0]]
    }, 
    {
      "op": "FullyConnected", 
      "name": "lstm_l_1t18_h2h", 
      "attrs": {"num_hidden": "160"}, 
      "inputs": [[989, 0, 0], [88, 0, 0], [89, 0, 0]]
    }, 
    {
      "op": "elemwise_add", 
      "name": "_plus173", 
      "inputs": [[985, 0, 0], [990, 0, 0]]
    }, 
    {
      "op": "SliceChannel", 
      "name": "lstm_l_1t18_slice", 
      "attrs": {"num_outputs": "4"}, 
      "inputs": [[991, 0, 0]]
    }, 
    {
      "op": "Activation", 
      "name": "lstm_l_1t18_o", 
      "attrs": {"act_type": "sigmoid"}, 
      "inputs": [[992, 3, 0]]
    }, 
    {
      "op": "Activation", 
      "name": "lstm_l_1t18_f", 
      "attrs": {"act_type": "sigmoid"}, 
      "inputs": [[992, 1, 0]]
    }, 
    {
      "op": "ones_like", 
      "name": "ones_like175", 
      "inputs": [[953, 0, 0]]
    }, 
    {
      "op": "Dropout", 
      "name": "dropout171", 
      "attrs": {"p": "0.1"}, 
      "inputs": [[995, 0, 0]]
    }, 
    {
      "op": "where", 
      "name": "where404", 
      "inputs": [[996, 0, 0], [953, 0, 0], [948, 0, 0]]
    }, 
    {
      "op": "where", 
      "name": "where410", 
      "inputs": [[36, 747, 0], [95, 0, 0], [997, 0, 0]]
    }, 
    {
      "op": "elemwise_mul", 
      "name": "_mul654", 
      "inputs": [[994, 0, 0], [998, 0, 0]]
    }, 
    {
      "op": "Activation", 
      "name": "lstm_l_1t18_i", 
      "attrs": {"act_type": "sigmoid"}, 
      "inputs": [[992, 0, 0]]
    }, 
    {
      "op": "Activation", 
      "name": "lstm_l_1t18_c", 
      "attrs": {"act_type": "tanh"}, 
      "inputs": [[992, 2, 0]]
    }, 
    {
      "op": "elemwise_mul", 
      "name": "_mul655", 
      "inputs": [[1000, 0, 0], [1001, 0, 0]]
    }, 
    {
      "op": "elemwise_add", 
      "name": "lstm_l_1t18_state", 
      "inputs": [[999, 0, 0], [1002, 0, 0]]
    }, 
    {
      "op": "Activation", 
      "name": "activation173", 
      "attrs": {"act_type": "tanh"}, 
      "inputs": [[1003, 0, 0]]
    }, 
    {
      "op": "elemwise_mul", 
      "name": "lstm_l_1t18_out", 
      "inputs": [[993, 0, 0], [1004, 0, 0]]
    }, 
    {
      "op": "elemwise_add", 
      "name": "lstm_l_1t18_out_plus_residual", 
      "inputs": [[1005, 0, 0], [984, 0, 0]]
    }, 
    {
      "op": "FullyConnected", 
      "name": "fullyconnected129", 
      "attrs": {"num_hidden": "1"}, 
      "inputs": [[1006, 0, 0], [105, 0, 0], [106, 0, 0]]
    }, 
    {
      "op": "elemwise_mul", 
      "name": "_mul662", 
      "inputs": [[1007, 0, 0], [30, 0, 0]]
    }, 
    {
      "op": "where", 
      "name": "where415", 
      "inputs": [[36, 747, 0], [40, 0, 0], [1008, 0, 0]]
    }, 
    {
      "op": "where", 
      "name": "where416", 
      "inputs": [[15, 747, 0], [10, 747, 0], [1009, 0, 0]]
    }, 
    {
      "op": "Concat", 
      "name": "concat97", 
      "attrs": {
        "dim": "1", 
        "num_args": "27"
      }, 
      "inputs": [
        [1010, 0, 0], 
        [960, 0, 0], 
        [910, 0, 0], 
        [860, 0, 0], 
        [810, 0, 0], 
        [760, 0, 0], 
        [710, 0, 0], 
        [660, 0, 0], 
        [410, 0, 0], 
        [360, 0, 0], 
        [310, 0, 0], 
        [10, 728, 0], 
        [10, 727, 0], 
        [10, 726, 0], 
        [10, 721, 0], 
        [10, 720, 0], 
        [10, 719, 0], 
        [10, 718, 0], 
        [10, 717, 0], 
        [10, 692, 0], 
        [10, 664, 0], 
        [10, 385, 0], 
        [10, 384, 0], 
        [10, 383, 0], 
        [10, 21, 0], 
        [10, 20, 0], 
        [10, 19, 0]
      ]
    }, 
    {
      "op": "broadcast_div", 
      "name": "broadcast_div46", 
      "inputs": [[1011, 0, 0], [30, 0, 0]]
    }, 
    {
      "op": "Concat", 
      "name": "concat98", 
      "attrs": {
        "dim": "1", 
        "num_args": "3"
      }, 
      "inputs": [[39, 748, 0], [32, 0, 0], [1012, 0, 0]]
    }, 
    {
      "op": "FullyConnected", 
      "name": "lstm_l_0t19_i2h", 
      "attrs": {"num_hidden": "160"}, 
      "inputs": [[1013, 0, 0], [62, 0, 0], [63, 0, 0]]
    }, 
    {
      "op": "ones_like", 
      "name": "ones_like176", 
      "inputs": [[984, 0, 0]]
    }, 
    {
      "op": "Dropout", 
      "name": "dropout172", 
      "attrs": {"p": "0.1"}, 
      "inputs": [[1015, 0, 0]]
    }, 
    {
      "op": "where", 
      "name": "where411", 
      "inputs": [[1016, 0, 0], [984, 0, 0], [968, 0, 0]]
    }, 
    {
      "op": "where", 
      "name": "where417", 
      "inputs": [[36, 748, 0], [65, 0, 0], [1017, 0, 0]]
    }, 
    {
      "op": "FullyConnected", 
      "name": "lstm_l_0t19_h2h", 
      "attrs": {"num_hidden": "160"}, 
      "inputs": [[1018, 0, 0], [67, 0, 0], [68, 0, 0]]
    }, 
    {
      "op": "elemwise_add", 
      "name": "_plus176", 
      "inputs": [[1014, 0, 0], [1019, 0, 0]]
    }, 
    {
      "op": "SliceChannel", 
      "name": "lstm_l_0t19_slice", 
      "attrs": {"num_outputs": "4"}, 
      "inputs": [[1020, 0, 0]]
    }, 
    {
      "op": "Activation", 
      "name": "lstm_l_0t19_o", 
      "attrs": {"act_type": "sigmoid"}, 
      "inputs": [[1021, 3, 0]]
    }, 
    {
      "op": "Activation", 
      "name": "lstm_l_0t19_f", 
      "attrs": {"act_type": "sigmoid"}, 
      "inputs": [[1021, 1, 0]]
    }, 
    {
      "op": "ones_like", 
      "name": "ones_like177", 
      "inputs": [[982, 0, 0]]
    }, 
    {
      "op": "Dropout", 
      "name": "dropout173", 
      "attrs": {"p": "0.1"}, 
      "inputs": [[1024, 0, 0]]
    }, 
    {
      "op": "where", 
      "name": "where412", 
      "inputs": [[1025, 0, 0], [982, 0, 0], [977, 0, 0]]
    }, 
    {
      "op": "where", 
      "name": "where418", 
      "inputs": [[36, 748, 0], [74, 0, 0], [1026, 0, 0]]
    }, 
    {
      "op": "elemwise_mul", 
      "name": "_mul667", 
      "inputs": [[1023, 0, 0], [1027, 0, 0]]
    }, 
    {
      "op": "Activation", 
      "name": "lstm_l_0t19_i", 
      "attrs": {"act_type": "sigmoid"}, 
      "inputs": [[1021, 0, 0]]
    }, 
    {
      "op": "Activation", 
      "name": "lstm_l_0t19_c", 
      "attrs": {"act_type": "tanh"}, 
      "inputs": [[1021, 2, 0]]
    }, 
    {
      "op": "elemwise_mul", 
      "name": "_mul668", 
      "inputs": [[1029, 0, 0], [1030, 0, 0]]
    }, 
    {
      "op": "elemwise_add", 
      "name": "lstm_l_0t19_state", 
      "inputs": [[1028, 0, 0], [1031, 0, 0]]
    }, 
    {
      "op": "Activation", 
      "name": "activation176", 
      "attrs": {"act_type": "tanh"}, 
      "inputs": [[1032, 0, 0]]
    }, 
    {
      "op": "elemwise_mul", 
      "name": "lstm_l_0t19_out", 
      "inputs": [[1022, 0, 0], [1033, 0, 0]]
    }, 
    {
      "op": "FullyConnected", 
      "name": "lstm_l_1t19_i2h", 
      "attrs": {"num_hidden": "160"}, 
      "inputs": [[1034, 0, 0], [83, 0, 0], [84, 0, 0]]
    }, 
    {
      "op": "ones_like", 
      "name": "ones_like178", 
      "inputs": [[1005, 0, 0]]
    }, 
    {
      "op": "Dropout", 
      "name": "dropout174", 
      "attrs": {"p": "0.1"}, 
      "inputs": [[1036, 0, 0]]
    }, 
    {
      "op": "where", 
      "name": "where413", 
      "inputs": [[1037, 0, 0], [1005, 0, 0], [989, 0, 0]]
    }, 
    {
      "op": "where", 
      "name": "where419", 
      "inputs": [[36, 748, 0], [86, 0, 0], [1038, 0, 0]]
    }, 
    {
      "op": "FullyConnected", 
      "name": "lstm_l_1t19_h2h", 
      "attrs": {"num_hidden": "160"}, 
      "inputs": [[1039, 0, 0], [88, 0, 0], [89, 0, 0]]
    }, 
    {
      "op": "elemwise_add", 
      "name": "_plus177", 
      "inputs": [[1035, 0, 0], [1040, 0, 0]]
    }, 
    {
      "op": "SliceChannel", 
      "name": "lstm_l_1t19_slice", 
      "attrs": {"num_outputs": "4"}, 
      "inputs": [[1041, 0, 0]]
    }, 
    {
      "op": "Activation", 
      "name": "lstm_l_1t19_o", 
      "attrs": {"act_type": "sigmoid"}, 
      "inputs": [[1042, 3, 0]]
    }, 
    {
…
      "inputs": [[1201, 0, 0]]
    }, 
    {
      "op": "Dropout", 
      "name": "dropout204", 
      "attrs": {"p": "0.1"}, 
      "inputs": [[1267, 0, 0]]
    }, 
    {
      "op": "where", 
      "name": "where451", 
      "inputs": [[1268, 0, 0], [1201, 0, 0], [1186, 0, 0]]
    }, 
    {
      "op": "FullyConnected", 
      "name": "lstm_l_0t27_h2h", 
      "attrs": {"num_hidden": "160"}, 
      "inputs": [[1269, 0, 0], [67, 0, 0], [68, 0, 0]]
    }, 
    {
      "op": "elemwise_add", 
      "name": "_plus208", 
      "inputs": [[1266, 0, 0], [1270, 0, 0]]
    }, 
    {
      "op": "SliceChannel", 
      "name": "lstm_l_0t27_slice", 
      "attrs": {"num_outputs": "4"}, 
      "inputs": [[1271, 0, 0]]
    }, 
    {
      "op": "Activation", 
      "name": "lstm_l_0t27_o", 
      "attrs": {"act_type": "sigmoid"}, 
      "inputs": [[1272, 3, 0]]
    }, 
    {
      "op": "Activation", 
      "name": "lstm_l_0t27_f", 
      "attrs": {"act_type": "sigmoid"}, 
      "inputs": [[1272, 1, 0]]
    }, 
    {
      "op": "ones_like", 
      "name": "ones_like209", 
      "inputs": [[1199, 0, 0]]
    }, 
    {
      "op": "Dropout", 
      "name": "dropout205", 
      "attrs": {"p": "0.1"}, 
      "inputs": [[1275, 0, 0]]
    }, 
    {
      "op": "where", 
      "name": "where452", 
      "inputs": [[1276, 0, 0], [1199, 0, 0], [1194, 0, 0]]
    }, 
    {
      "op": "elemwise_mul", 
      "name": "_mul788", 
      "inputs": [[1274, 0, 0], [1277, 0, 0]]
    }, 
    {
      "op": "Activation", 
      "name": "lstm_l_0t27_i", 
      "attrs": {"act_type": "sigmoid"}, 
      "inputs": [[1272, 0, 0]]
    }, 
    {
      "op": "Activation", 
      "name": "lstm_l_0t27_c", 
      "attrs": {"act_type": "tanh"}, 
      "inputs": [[1272, 2, 0]]
    }, 
    {
      "op": "elemwise_mul", 
      "name": "_mul789", 
      "inputs": [[1279, 0, 0], [1280, 0, 0]]
    }, 
    {
      "op": "elemwise_add", 
      "name": "lstm_l_0t27_state", 
      "inputs": [[1278, 0, 0], [1281, 0, 0]]
    }, 
    {
      "op": "Activation", 
      "name": "activation208", 
      "attrs": {"act_type": "tanh"}, 
      "inputs": [[1282, 0, 0]]
    }, 
    {
      "op": "elemwise_mul", 
      "name": "lstm_l_0t27_out", 
      "inputs": [[1273, 0, 0], [1283, 0, 0]]
    }, 
    {
      "op": "FullyConnected", 
      "name": "lstm_l_1t27_i2h", 
      "attrs": {"num_hidden": "160"}, 
      "inputs": [[1284, 0, 0], [83, 0, 0], [84, 0, 0]]
    }, 
    {
      "op": "ones_like", 
      "name": "ones_like210", 
      "inputs": [[1220, 0, 0]]
    }, 
    {
      "op": "Dropout", 
      "name": "dropout206", 
      "attrs": {"p": "0.1"}, 
      "inputs": [[1286, 0, 0]]
    }, 
    {
      "op": "where", 
      "name": "where453", 
      "inputs": [[1287, 0, 0], [1220, 0, 0], [1205, 0, 0]]
    }, 
    {
      "op": "FullyConnected", 
      "name": "lstm_l_1t27_h2h", 
      "attrs": {"num_hidden": "160"}, 
      "inputs": [[1288, 0, 0], [88, 0, 0], [89, 0, 0]]
    }, 
    {
      "op": "elemwise_add", 
      "name": "_plus209", 
      "inputs": [[1285, 0, 0], [1289, 0, 0]]
    }, 
    {
      "op": "SliceChannel", 
      "name": "lstm_l_1t27_slice", 
      "attrs": {"num_outputs": "4"}, 
      "inputs": [[1290, 0, 0]]
    }, 
    {
      "op": "Activation", 
      "name": "lstm_l_1t27_o", 
      "attrs": {"act_type": "sigmoid"}, 
      "inputs": [[1291, 3, 0]]
    }, 
    {
      "op": "Activation", 
      "name": "lstm_l_1t27_f", 
      "attrs": {"act_type": "sigmoid"}, 
      "inputs": [[1291, 1, 0]]
    }, 
    {
      "op": "ones_like", 
      "name": "ones_like211", 
      "inputs": [[1218, 0, 0]]
    }, 
    {
      "op": "Dropout", 
      "name": "dropout207", 
      "attrs": {"p": "0.1"}, 
      "inputs": [[1294, 0, 0]]
    }, 
    {
      "op": "where", 
      "name": "where454", 
      "inputs": [[1295, 0, 0], [1218, 0, 0], [1213, 0, 0]]
    }, 
    {
      "op": "elemwise_mul", 
      "name": "_mul790", 
      "inputs": [[1293, 0, 0], [1296, 0, 0]]
    }, 
    {
      "op": "Activation", 
      "name": "lstm_l_1t27_i", 
      "attrs": {"act_type": "sigmoid"}, 
      "inputs": [[1291, 0, 0]]
    }, 
    {
      "op": "Activation", 
      "name": "lstm_l_1t27_c", 
      "attrs": {"act_type": "tanh"}, 
      "inputs": [[1291, 2, 0]]
    }, 
    {
      "op": "elemwise_mul", 
      "name": "_mul791", 
      "inputs": [[1298, 0, 0], [1299, 0, 0]]
    }, 
    {
      "op": "elemwise_add", 
      "name": "lstm_l_1t27_state", 
      "inputs": [[1297, 0, 0], [1300, 0, 0]]
    }, 
    {
      "op": "Activation", 
      "name": "activation209", 
      "attrs": {"act_type": "tanh"}, 
      "inputs": [[1301, 0, 0]]
    }, 
    {
      "op": "elemwise_mul", 
      "name": "lstm_l_1t27_out", 
      "inputs": [[1292, 0, 0], [1302, 0, 0]]
    }, 
    {
      "op": "elemwise_add", 
      "name": "lstm_l_1t27_out_plus_residual", 
      "inputs": [[1303, 0, 0], [1284, 0, 0]]
    }, 
    {
      "op": "FullyConnected", 
      "name": "fullyconnected156", 
      "attrs": {"num_hidden": "1"}, 
      "inputs": [[1304, 0, 0], [105, 0, 0], [106, 0, 0]]
    }, 
    {
      "op": "elemwise_mul", 
      "name": "_mul798", 
      "inputs": [[1305, 0, 0], [1089, 0, 0]]
    }, 
    {
      "op": "FullyConnected", 
      "name": "fullyconnected158", 
      "attrs": {"num_hidden": "1"}, 
      "inputs": [[1304, 0, 0], [1137, 0, 0], [1138, 0, 0]]
    }, 
    {
      "op": "zeros_like", 
      "name": "zeros_like147", 
      "inputs": [[1307, 0, 0]]
    }, 
    {
      "op": "_plus_scalar", 
      "name": "_plusscalar207", 
      "attrs": {"scalar": "20.0"}, 
      "inputs": [[1308, 0, 0]]
    }, 
    {
      "op": "broadcast_lesser", 
      "name": "broadcast_lesser105", 
      "inputs": [[1307, 0, 0], [1309, 0, 0]]
    }, 
    {
      "op": "elemwise_mul", 
      "name": "_mul795", 
      "inputs": [[1310, 0, 0], [1307, 0, 0]]
    }, 
    {
      "op": "Activation", 
      "name": "activation211", 
      "attrs": {"act_type": "softrelu"}, 
      "inputs": [[1311, 0, 0]]
    }, 
    {
      "op": "elemwise_mul", 
      "name": "_mul796", 
      "inputs": [[1310, 0, 0], [1312, 0, 0]]
    }, 
    {
      "op": "broadcast_greater_equal", 
      "name": "broadcast_greater_equal105", 
      "inputs": [[1307, 0, 0], [1309, 0, 0]]
    }, 
    {
      "op": "elemwise_mul", 
      "name": "_mul797", 
      "inputs": [[1314, 0, 0], [1307, 0, 0]]
    }, 
    {
      "op": "elemwise_add", 
      "name": "_plus211", 
      "inputs": [[1313, 0, 0], [1315, 0, 0]]
    }, 
    {
      "op": "_plus_scalar", 
      "name": "_plusscalar208", 
      "attrs": {"scalar": "2.0"}, 
      "inputs": [[1316, 0, 0]]
    }, 
    {
      "op": "_div_scalar", 
      "name": "_divscalar116", 
      "attrs": {"scalar": "2.0"}, 
      "inputs": [[1317, 0, 0]]
    }, 
    {
      "op": "FullyConnected", 
      "name": "fullyconnected157", 
      "attrs": {"num_hidden": "1"}, 
      "inputs": [[1304, 0, 0], [1151, 0, 0], [1152, 0, 0]]
    }, 
    {
      "op": "zeros_like", 
      "name": "zeros_like146", 
      "inputs": [[1319, 0, 0]]
    }, 
    {
      "op": "_plus_scalar", 
      "name": "_plusscalar206", 
      "attrs": {"scalar": "20.0"}, 
      "inputs": [[1320, 0, 0]]
    }, 
    {
      "op": "broadcast_lesser", 
      "name": "broadcast_lesser104", 
      "inputs": [[1319, 0, 0], [1321, 0, 0]]
    }, 
    {
      "op": "elemwise_mul", 
      "name": "_mul792", 
      "inputs": [[1322, 0, 0], [1319, 0, 0]]
    }, 
    {
      "op": "Activation", 
      "name": "activation210", 
      "attrs": {"act_type": "softrelu"}, 
      "inputs": [[1323, 0, 0]]
    }, 
    {
      "op": "elemwise_mul", 
      "name": "_mul793", 
      "inputs": [[1322, 0, 0], [1324, 0, 0]]
    }, 
    {
      "op": "broadcast_greater_equal", 
      "name": "broadcast_greater_equal104", 
      "inputs": [[1319, 0, 0], [1321, 0, 0]]
    }, 
    {
      "op": "elemwise_mul", 
      "name": "_mul794", 
      "inputs": [[1326, 0, 0], [1319, 0, 0]]
    }, 
    {
      "op": "elemwise_add", 
      "name": "_plus210", 
      "inputs": [[1325, 0, 0], [1327, 0, 0]]
    }, 
    {
      "op": "elemwise_mul", 
      "name": "_mul799", 
      "inputs": [[1328, 0, 0], [1089, 0, 0]]
    }, 
    {
      "op": "square", 
      "name": "square62", 
      "inputs": [[1329, 0, 0]]
    }, 
    {
      "op": "elemwise_mul", 
      "name": "_mul800", 
      "inputs": [[1317, 0, 0], [1330, 0, 0]]
    }, 
    {
      "op": "_rdiv_scalar", 
      "name": "_rdivscalar74", 
      "attrs": {"scalar": "2.0"}, 
      "inputs": [[1331, 0, 0]]
    }, 
    {
      "op": "_sample_gamma", 
      "name": "sample_gamma12", 
      "inputs": [[1318, 0, 0], [1332, 0, 0]]
    }, 
    {
      "op": "sqrt", 
      "name": "sqrt12", 
      "inputs": [[1333, 0, 0]]
    }, 
    {
      "op": "_rdiv_scalar", 
      "name": "_rdivscalar75", 
      "attrs": {"scalar": "1.0"}, 
      "inputs": [[1334, 0, 0]]
    }, 
    {
      "op": "_sample_normal", 
      "name": "sample_normal12", 
      "inputs": [[1306, 0, 0], [1335, 0, 0]]
    }, 
    {
      "op": "repeat", 
      "name": "repeat760", 
      "attrs": {
        "axis": "0", 
        "repeats": "100"
      }, 
      "inputs": [[1, 3, 0]]
    }, 
    {
      "op": "repeat", 
      "name": "repeat761", 
      "attrs": {
        "axis": "0", 
        "repeats": "100"
      }, 
      "inputs": [[32, 0, 0]]
    }, 
    {
      "op": "repeat", 
      "name": "repeat743", 
      "attrs": {
        "axis": "0", 
        "repeats": "100"
      }, 
      "inputs": [[610, 0, 0]]
    }, 
    {
      "op": "repeat", 
      "name": "repeat736", 
      "attrs": {
        "axis": "0", 
        "repeats": "100"
      }, 
      "inputs": [[260, 0, 0]]
    }, 
    {
      "op": "repeat", 
      "name": "repeat729", 
      "attrs": {
        "axis": "0", 
        "repeats": "100"
      }, 
      "inputs": [[10, 725, 0]]
    }, 
    {
      "op": "repeat", 
      "name": "repeat700", 
      "attrs": {
        "axis": "0", 
        "repeats": "100"
      }, 
      "inputs": [[10, 696, 0]]
    }, 
    {
      "op": "repeat", 
      "name": "repeat672", 
      "attrs": {
        "axis": "0", 
        "repeats": "100"
      }, 
      "inputs": [[10, 668, 0]]
    }, 
    {
      "op": "repeat", 
      "name": "repeat393", 
      "attrs": {
        "axis": "0", 
        "repeats": "100"
      }, 
      "inputs": [[10, 389, 0]]
    }, 
    {
      "op": "repeat", 
      "name": "repeat29", 
      "attrs": {
        "axis": "0", 
        "repeats": "100"
      }, 
      "inputs": [[10, 25, 0]]
    }, 
    {
      "op": "Concat", 
      "name": "concat118", 
      "attrs": {
        "dim": "1", 
        "num_args": "27"
      }, 
      "inputs": [
        [1336, 0, 0], 
        [1253, 0, 0], 
        [1170, 0, 0], 
        [1061, 0, 0], 
        [1062, 0, 0], 
        [1063, 0, 0], 
        [1064, 0, 0], 
        [1065, 0, 0], 
        [1339, 0, 0], 
        [1256, 0, 0], 
        [1173, 0, 0], 
        [1340, 0, 0], 
        [1257, 0, 0], 
        [1174, 0, 0], 
        [1341, 0, 0], 
        [1258, 0, 0], 
        [1175, 0, 0], 
        [1075, 0, 0], 
        [1076, 0, 0], 
        [1342, 0, 0], 
        [1343, 0, 0], 
        [1344, 0, 0], 
        [1261, 0, 0], 
        [1178, 0, 0], 
        [1345, 0, 0], 
        [1262, 0, 0], 
        [1179, 0, 0]
      ]
    }, 
    {
      "op": "broadcast_div", 
      "name": "broadcast_div55", 
      "inputs": [[1346, 0, 0], [1089, 0, 0]]
    }, 
    {
      "op": "Concat", 
      "name": "concat119", 
      "attrs": {
        "dim": "1", 
        "num_args": "3"
      }, 
      "inputs": [[1337, 0, 0], [1338, 0, 0], [1347, 0, 0]]
    }, 
    {
      "op": "FullyConnected", 
      "name": "lstm_l_0t28_i2h", 
      "attrs": {"num_hidden": "160"}, 
      "inputs": [[1348, 0, 0], [62, 0, 0], [63, 0, 0]]
    }, 
    {
      "op": "ones_like", 
      "name": "ones_like212", 
      "inputs": [[1284, 0, 0]]
    }, 
    {
      "op": "Dropout", 
      "name": "dropout208", 
      "attrs": {"p": "0.1"}, 
      "inputs": [[1350, 0, 0]]
    }, 
    {
      "op": "where", 
      "name": "where455", 
      "inputs": [[1351, 0, 0], [1284, 0, 0], [1269, 0, 0]]
    }, 
    {
      "op": "FullyConnected", 
      "name": "lstm_l_0t28_h2h", 
      "attrs": {"num_hidden": "160"}, 
      "inputs": [[1352, 0, 0], [67, 0, 0], [68, 0, 0]]
    }, 
    {
      "op": "elemwise_add", 
      "name": "_plus212", 
      "inputs": [[1349, 0, 0], [1353, 0, 0]]
    }, 
    {
      "op": "SliceChannel", 
      "name": "lstm_l_0t28_slice", 
      "attrs": {"num_outputs": "4"}, 
      "inputs": [[1354, 0, 0]]
    }, 
    {
      "op": "Activation", 
      "name": "lstm_l_0t28_o", 
      "attrs": {"act_type": "sigmoid"}, 
      "inputs": [[1355, 3, 0]]
    }, 
    {
      "op": "Activation", 
      "name": "lstm_l_0t28_f", 
      "attrs": {"act_type": "sigmoid"}, 
      "inputs": [[1355, 1, 0]]
    }, 
    {
      "op": "ones_like", 
      "name": "ones_like213", 
      "inputs": [[1282, 0, 0]]
    }, 
    {
      "op": "Dropout", 
      "name": "dropout209", 
      "attrs": {"p": "0.1"}, 
      "inputs": [[1358, 0, 0]]
    }, 
    {
      "op": "where", 
      "name": "where456", 
      "inputs": [[1359, 0, 0], [1282, 0, 0], [1277, 0, 0]]
    }, 
    {
      "op": "elemwise_mul", 
      "name": "_mul801", 
      "inputs": [[1357, 0, 0], [1360, 0, 0]]
    }, 
    {
      "op": "Activation", 
      "name": "lstm_l_0t28_i", 
      "attrs": {"act_type": "sigmoid"}, 
      "inputs": [[1355, 0, 0]]
    }, 
    {
      "op": "Activation", 
      "name": "lstm_l_0t28_c", 
      "attrs": {"act_type": "tanh"}, 
      "inputs": [[1355, 2, 0]]
    }, 
    {
      "op": "elemwise_mul", 
      "name": "_mul802", 
      "inputs": [[1362, 0, 0], [1363, 0, 0]]
    }, 
    {
      "op": "elemwise_add", 
      "name": "lstm_l_0t28_state", 
      "inputs": [[1361, 0, 0], [1364, 0, 0]]
    }, 
    {
      "op": "Activation", 
      "name": "activation212", 
      "attrs": {"act_type": "tanh"}, 
      "inputs": [[1365, 0, 0]]
    }, 
    {
      "op": "elemwise_mul", 
      "name": "lstm_l_0t28_out", 
      "inputs": [[1356, 0, 0], [1366, 0, 0]]
    }, 
    {
      "op": "FullyConnected", 
      "name": "lstm_l_1t28_i2h", 
      "attrs": {"num_hidden": "160"}, 
      "inputs": [[1367, 0, 0], [83, 0, 0], [84, 0, 0]]
    }, 
    {
      "op": "ones_like", 
      "name": "ones_like214", 
      "inputs": [[1303, 0, 0]]
    }, 
    {
      "op": "Dropout", 
      "name": "dropout210", 
      "attrs": {"p": "0.1"}, 
      "inputs": [[1369, 0, 0]]
    }, 
    {
      "op": "where", 
      "name": "where457", 
      "inputs": [[1370, 0, 0], [1303, 0, 0], [1288, 0, 0]]
    }, 
    {
      "op": "FullyConnected", 
      "name": "lstm_l_1t28_h2h", 
      "attrs": {"num_hidden": "160"}, 
      "inputs": [[1371, 0, 0], [88, 0, 0], [89, 0, 0]]
    }, 
    {
      "op": "elemwise_add", 
      "name": "_plus213", 
      "inputs": [[1368, 0, 0], [1372, 0, 0]]
    }, 
    {
      "op": "SliceChannel", 
      "name": "lstm_l_1t28_slice", 
      "attrs": {"num_outputs": "4"}, 
      "inputs": [[1373, 0, 0]]
    }, 
    {
      "op": "Activation", 
      "name": "lstm_l_1t28_o", 
      "attrs": {"act_type": "sigmoid"}, 
      "inputs": [[1374, 3, 0]]
    }, 
    {
      "op": "Activation", 
      "name": "lstm_l_1t28_f", 
      "attrs": {"act_type": "sigmoid"}, 
      "inputs": [[1374, 1, 0]]
    }, 
    {
      "op": "ones_like", 
      "name": "ones_like215", 
      "inputs": [[1301, 0, 0]]
    }, 
    {
      "op": "Dropout", 
      "name": "dropout211", 
      "attrs": {"p": "0.1"}, 
      "inputs": [[1377, 0, 0]]
    }, 
    {
      "op": "where", 
      "name": "where458", 
      "inputs": [[1378, 0, 0], [1301, 0, 0], [1296, 0, 0]]
    }, 
    {
      "op": "elemwise_mul", 
      "name": "_mul803", 
      "inputs": [[1376, 0, 0], [1379, 0, 0]]
    }, 
    {
      "op": "Activation", 
      "name": "lstm_l_1t28_i", 
      "attrs": {"act_type": "sigmoid"}, 
      "inputs": [[1374, 0, 0]]
    }, 
    {
      "op": "Activation", 
      "name": "lstm_l_1t28_c", 
      "attrs": {"act_type": "tanh"}, 
      "inputs": [[1374, 2, 0]]
    }, 
    {
      "op": "elemwise_mul", 
      "name": "_mul804", 
      "inputs": [[1381, 0, 0], [1382, 0, 0]]
    }, 
    {
      "op": "elemwise_add", 
      "name": "lstm_l_1t28_state", 
      "inputs": [[1380, 0, 0], [1383, 0, 0]]
    }, 
    {
      "op": "Activation", 
      "name": "activation213", 
      "attrs": {"act_type": "tanh"}, 
      "inputs": [[1384, 0, 0]]
    }, 
    {
      "op": "elemwise_mul", 
      "name": "lstm_l_1t28_out", 
      "inputs": [[1375, 0, 0], [1385, 0, 0]]
    }, 
    {
      "op": "elemwise_add", 
      "name": "lstm_l_1t28_out_plus_residual", 
      "inputs": [[1386, 0, 0], [1367, 0, 0]]
    }, 
    {
      "op": "FullyConnected", 
      "name": "fullyconnected159", 
      "attrs": {"num_hidden": "1"}, 
      "inputs": [[1387, 0, 0], [105, 0, 0], [106, 0, 0]]
    }, 
    {
      "op": "elemwise_mul", 
      "name": "_mul811", 
      "inputs": [[1388, 0, 0], [1089, 0, 0]]
    }, 
    {
      "op": "FullyConnected", 
      "name": "fullyconnected161", 
      "attrs": {"num_hidden": "1"}, 
      "inputs": [[1387, 0, 0], [1137, 0, 0], [1138, 0, 0]]
    }, 
    {
      "op": "zeros_like", 
      "name": "zeros_like149", 
      "inputs": [[1390, 0, 0]]
    }, 
    {
      "op": "_plus_scalar", 
      "name": "_plusscalar210", 
      "attrs": {"scalar": "20.0"}, 
      "inputs": [[1391, 0, 0]]
    }, 
    {
      "op": "broadcast_lesser", 
      "name": "broadcast_lesser107", 
      "inputs": [[1390, 0, 0], [1392, 0, 0]]
    }, 
    {
      "op": "elemwise_mul", 
      "name": "_mul808", 
      "inputs": [[1393, 0, 0], [1390, 0, 0]]
    }, 
    {
      "op": "Activation", 
      "name": "activation215", 
      "attrs": {"act_type": "softrelu"}, 
      "inputs": [[1394, 0, 0]]
    }, 
    {
      "op": "elemwise_mul", 
      "name": "_mul809", 
      "inputs": [[1393, 0, 0], [1395, 0, 0]]
    }, 
    {
      "op": "broadcast_greater_equal", 
      "name": "broadcast_greater_equal107", 
      "inputs": [[1390, 0, 0], [1392, 0, 0]]
    }, 
    {
      "op": "elemwise_mul", 
      "name": "_mul810", 
      "inputs": [[1397, 0, 0], [1390, 0, 0]]
    }, 
    {
      "op": "elemwise_add", 
      "name": "_plus215", 
      "inputs": [[1396, 0, 0], [1398, 0, 0]]
    }, 
    {
      "op": "_plus_scalar", 
      "name": "_plusscalar211", 
      "attrs": {"scalar": "2.0"}, 
      "inputs": [[1399, 0, 0]]
    }, 
    {
      "op": "_div_scalar", 
      "name": "_divscalar117", 
      "attrs": {"scalar": "2.0"}, 
      "inputs": [[1400, 0, 0]]
    }, 
    {
      "op": "FullyConnected", 
      "name": "fullyconnected160", 
      "attrs": {"num_hidden": "1"}, 
      "inputs": [[1387, 0, 0], [1151, 0, 0], [1152, 0, 0]]
    }, 
    {
      "op": "zeros_like", 
      "name": "zeros_like148", 
      "inputs": [[1402, 0, 0]]
    }, 
    {
      "op": "_plus_scalar", 
      "name": "_plusscalar209", 
      "attrs": {"scalar": "20.0"}, 
      "inputs": [[1403, 0, 0]]
    }, 
    {
      "op": "broadcast_lesser", 
      "name": "broadcast_lesser106", 
      "inputs": [[1402, 0, 0], [1404, 0, 0]]
    }, 
    {
      "op": "elemwise_mul", 
      "name": "_mul805", 
      "inputs": [[1405, 0, 0], [1402, 0, 0]]
    }, 
    {
      "op": "Activation", 
      "name": "activation214", 
      "attrs": {"act_type": "softrelu"}, 
      "inputs": [[1406, 0, 0]]
    }, 
    {
      "op": "elemwise_mul", 
      "name": "_mul806", 
      "inputs": [[1405, 0, 0], [1407, 0, 0]]
    }, 
    {
      "op": "broadcast_greater_equal", 
      "name": "broadcast_greater_equal106", 
      "inputs": [[1402, 0, 0], [1404, 0, 0]]
    }, 
    {
      "op": "elemwise_mul", 
      "name": "_mul807", 
      "inputs": [[1409, 0, 0], [1402, 0, 0]]
    }, 
    {
      "op": "elemwise_add", 
      "name": "_plus214", 
      "inputs": [[1408, 0, 0], [1410, 0, 0]]
    }, 
    {
      "op": "elemwise_mul", 
      "name": "_mul812", 
      "inputs": [[1411, 0, 0], [1089, 0, 0]]
    }, 
    {
      "op": "square", 
      "name": "square63", 
      "inputs": [[1412, 0, 0]]
    }, 
    {
      "op": "elemwise_mul", 
      "name": "_mul813", 
      "inputs": [[1400, 0, 0], [1413, 0, 0]]
    }, 
    {
      "op": "_rdiv_scalar", 
      "name": "_rdivscalar76", 
      "attrs": {"scalar": "2.0"}, 
      "inputs": [[1414, 0, 0]]
    }, 
    {
      "op": "_sample_gamma", 
      "name": "sample_gamma13", 
      "inputs": [[1401, 0, 0], [1415, 0, 0]]
    }, 
    {
      "op": "sqrt", 
      "name": "sqrt13", 
      "inputs": [[1416, 0, 0]]
    }, 
    {
      "op": "_rdiv_scalar", 
      "name": "_rdivscalar77", 
      "attrs": {"scalar": "1.0"}, 
      "inputs": [[1417, 0, 0]]
    }, 
    {
      "op": "_sample_normal", 
      "name": "sample_normal13", 
      "inputs": [[1389, 0, 0], [1418, 0, 0]]
    }, 
    {
      "op": "repeat", 
      "name": "repeat762", 
      "attrs": {
        "axis": "0", 
        "repeats": "100"
      }, 
      "inputs": [[1, 4, 0]]
    }, 
    {
      "op": "repeat", 
      "name": "repeat763", 
      "attrs": {
        "axis": "0", 
        "repeats": "100"
      }, 
      "inputs": [[32, 0, 0]]
    }, 
    {
      "op": "repeat", 
      "name": "repeat744", 
      "attrs": {
        "axis": "0", 
        "repeats": "100"
      }, 
      "inputs": [[660, 0, 0]]
    }, 
    {
      "op": "repeat", 
      "name": "repeat737", 
      "attrs": {
        "axis": "0", 
        "repeats": "100"
      }, 
      "inputs": [[310, 0, 0]]
    }, 
    {
      "op": "repeat", 
      "name": "repeat730", 
      "attrs": {
        "axis": "0", 
        "repeats": "100"
      }, 
      "inputs": [[10, 726, 0]]
    }, 
    {
      "op": "repeat", 
      "name": "repeat701", 
      "attrs": {
        "axis": "0", 
        "repeats": "100"
      }, 
      "inputs": [[10, 697, 0]]
    }, 
    {
      "op": "repeat", 
      "name": "repeat673", 
      "attrs": {
        "axis": "0", 
        "repeats": "100"
      }, 
      "inputs": [[10, 669, 0]]
    }, 
    {
      "op": "repeat", 
      "name": "repeat394", 
      "attrs": {
        "axis": "0", 
        "repeats": "100"
      }, 
      "inputs": [[10, 390, 0]]
    }, 
    {
      "op": "repeat", 
      "name": "repeat30", 
      "attrs": {
        "axis": "0", 
        "repeats": "100"
      }, 
      "inputs": [[10, 26, 0]]
    }, 
    {
      "op": "Concat", 
      "name": "concat120", 
      "attrs": {
        "dim": "1", 
        "num_args": "27"
      }, 
      "inputs": [
        [1419, 0, 0], 
        [1336, 0, 0], 
        [1253, 0, 0], 
        [1170, 0, 0], 
        [1061, 0, 0], 
        [1062, 0, 0], 
        [1063, 0, 0], 
        [1064, 0, 0], 
        [1422, 0, 0], 
        [1339, 0, 0], 
        [1256, 0, 0], 
        [1423, 0, 0], 
        [1340, 0, 0], 
        [1257, 0, 0], 
        [1424, 0, 0], 
        [1341, 0, 0], 
        [1258, 0, 0], 
        [1175, 0, 0], 
        [1075, 0, 0], 
        [1425, 0, 0], 
        [1426, 0, 0], 
        [1427, 0, 0], 
        [1344, 0, 0], 
        [1261, 0, 0], 
        [1428, 0, 0], 
        [1345, 0, 0], 
        [1262, 0, 0]
      ]
    }, 
    {
      "op": "broadcast_div", 
      "name": "broadcast_div56", 
      "inputs": [[1429, 0, 0], [1089, 0, 0]]
    }, 
    {
      "op": "Concat", 
      "name": "concat121", 
      "attrs": {
        "dim": "1", 
        "num_args": "3"
      }, 
      "inputs": [[1420, 0, 0], [1421, 0, 0], [1430, 0, 0]]
    }, 
    {
      "op": "FullyConnected", 
      "name": "lstm_l_0t29_i2h", 
      "attrs": {"num_hidden": "160"}, 
      "inputs": [[1431, 0, 0], [62, 0, 0], [63, 0, 0]]
    }, 
    {
      "op": "ones_like", 
      "name": "ones_like216", 
      "inputs": [[1367, 0, 0]]
    }, 
    {
      "op": "Dropout", 
      "name": "dropout212", 
      "attrs": {"p": "0.1"}, 
      "inputs": [[1433, 0, 0]]
    }, 
    {
      "op": "where", 
      "name": "where459", 
      "inputs": [[1434, 0, 0], [1367, 0, 0], [1352, 0, 0]]
    }, 
    {
      "op": "FullyConnected", 
      "name": "lstm_l_0t29_h2h", 
      "attrs": {"num_hidden": "160"}, 
      "inputs": [[1435, 0, 0], [67, 0, 0], [68, 0, 0]]
    }, 
    {
      "op": "elemwise_add", 
      "name": "_plus216", 
      "inputs": [[1432, 0, 0], [1436, 0, 0]]
    }, 
    {
      "op": "SliceChannel", 
      "name": "lstm_l_0t29_slice", 
      "attrs": {"num_outputs": "4"}, 
      "inputs": [[1437, 0, 0]]
    }, 
    {
      "op": "Activation", 
      "name": "lstm_l_0t29_o", 
      "attrs": {"act_type": "sigmoid"}, 
      "inputs": [[1438, 3, 0]]
    }, 
    {
      "op": "Activation", 
      "name": "lstm_l_0t29_f", 
      "attrs": {"act_type": "sigmoid"}, 
      "inputs": [[1438, 1, 0]]
    }, 
    {
      "op": "ones_like", 
      "name": "ones_like217", 
      "inputs": [[1365, 0, 0]]
    }, 
    {
      "op": "Dropout", 
      "name": "dropout213", 
      "attrs": {"p": "0.1"}, 
      "inputs": [[1441, 0, 0]]
    }, 
    {
      "op": "where", 
      "name": "where460", 
      "inputs": [[1442, 0, 0], [1365, 0, 0], [1360, 0, 0]]
    }, 
    {
      "op": "elemwise_mul", 
      "name": "_mul814", 
      "inputs": [[1440, 0, 0], [1443, 0, 0]]
    }, 
    {
      "op": "Activation", 
      "name": "lstm_l_0t29_i", 
      "attrs": {"act_type": "sigmoid"}, 
      "inputs": [[1438, 0, 0]]
    }, 
    {
      "op": "Activation", 
      "name": "lstm_l_0t29_c", 
      "attrs": {"act_type": "tanh"}, 
      "inputs": [[1438, 2, 0]]
    }, 
    {
      "op": "elemwise_mul", 
      "name": "_mul815", 
      "inputs": [[1445, 0, 0], [1446, 0, 0]]
    }, 
    {
      "op": "elemwise_add", 
      "name": "lstm_l_0t29_state", 
      "inputs": [[1444, 0, 0], [1447, 0, 0]]
    }, 
    {
      "op": "Activation", 
      "name": "activation216", 
      "attrs": {"act_type": "tanh"}, 
      "inputs": [[1448, 0, 0]]
    }, 
    {
      "op": "elemwise_mul", 
      "name": "lstm_l_0t29_out", 
      "inputs": [[1439, 0, 0], [1449, 0, 0]]
    }, 
    {
      "op": "FullyConnected", 
      "name": "lstm_l_1t29_i2h", 
      "attrs": {"num_hidden": "160"}, 
      "inputs": [[1450, 0, 0], [83, 0, 0], [84, 0, 0]]
    }, 
    {
      "op": "ones_like", 
      "name": "ones_like218", 
      "inputs": [[1386, 0, 0]]
    }, 
    {
      "op": "Dropout", 
      "name": "dropout214", 
      "attrs": {"p": "0.1"}, 
      "inputs": [[1452, 0, 0]]
    }, 
    {
      "op": "where", 
      "name": "where461", 
      "inputs": [[1453, 0, 0], [1386, 0, 0], [1371, 0, 0]]
    }, 
    {
      "op": "FullyConnected", 
      "name": "lstm_l_1t29_h2h", 
      "attrs": {"num_hidden": "160"}, 
      "inputs": [[1454, 0, 0], [88, 0, 0], [89, 0, 0]]
    }, 
    {
      "op": "elemwise_add", 
      "name": "_plus217", 
      "inputs": [[1451, 0, 0], [1455, 0, 0]]
    }, 
    {
      "op": "SliceChannel", 
      "name": "lstm_l_1t29_slice", 
      "attrs": {"num_outputs": "4"}, 
      "inputs": [[1456, 0, 0]]
    }, 
    {
      "op": "Activation", 
      "name": "lstm_l_1t29_o", 
      "attrs": {"act_type": "sigmoid"}, 
      "inputs": [[1457, 3, 0]]
    }, 
    {
      "op": "Activation", 
      "name": "lstm_l_1t29_f", 
      "attrs": {"act_type": "sigmoid"}, 
      "inputs": [[1457, 1, 0]]
    }, 
    {
      "op": "ones_like", 
      "name": "ones_like219", 
      "inputs": [[1384, 0, 0]]
    }, 
    {
      "op": "Dropout", 
      "name": "dropout215", 
      "attrs": {"p": "0.1"}, 
      "inputs": [[1460, 0, 0]]
    }, 
    {
      "op": "where", 
      "name": "where462", 
      "inputs": [[1461, 0, 0], [1384, 0, 0], [1379, 0, 0]]
    }, 
    {
      "op": "elemwise_mul", 
      "name": "_mul816", 
      "inputs": [[1459, 0, 0], [1462, 0, 0]]
    }, 
    {
      "op": "Activation", 
      "name": "lstm_l_1t29_i", 
      "attrs": {"act_type": "sigmoid"}, 
      "inputs": [[1457, 0, 0]]
    }, 
    {
      "op": "Activation", 
      "name": "lstm_l_1t29_c", 
      "attrs": {"act_type": "tanh"}, 
      "inputs": [[1457, 2, 0]]
    }, 
    {
      "op": "elemwise_mul", 
      "name": "_mul817", 
      "inputs": [[1464, 0, 0], [1465, 0, 0]]
    }, 
    {
      "op": "elemwise_add", 
      "name": "lstm_l_1t29_state", 
      "inputs": [[1463, 0, 0], [1466, 0, 0]]
    }, 
    {
      "op": "Activation", 
      "name": "activation217", 
      "attrs": {"act_type": "tanh"}, 
      "inputs": [[1467, 0, 0]]
    }, 
    {
      "op": "elemwise_mul", 
      "name": "lstm_l_1t29_out", 
      "inputs": [[1458, 0, 0], [1468, 0, 0]]
    }, 
    {
      "op": "elemwise_add", 
      "name": "lstm_l_1t29_out_plus_residual", 
      "inputs": [[1469, 0, 0], [1450, 0, 0]]
    }, 
    {
      "op": "FullyConnected", 
      "name": "fullyconnected162", 
      "attrs": {"num_hidden": "1"}, 
      "inputs": [[1470, 0, 0], [105, 0, 0], [106, 0, 0]]
    }, 
    {
      "op": "elemwise_mul", 
      "name": "_mul824", 
      "inputs": [[1471, 0, 0], [1089, 0, 0]]
    }, 
    {
      "op": "FullyConnected", 
      "name": "fullyconnected164", 
      "attrs": {"num_hidden": "1"}, 
      "inputs": [[1470, 0, 0], [1137, 0, 0], [1138, 0, 0]]
    }, 
    {
      "op": "zeros_like", 
      "name": "zeros_like151", 
      "inputs": [[1473, 0, 0]]
    }, 
    {
      "op": "_plus_scalar", 
      "name": "_plusscalar213", 
      "attrs": {"scalar": "20.0"}, 
      "inputs": [[1474, 0, 0]]
    }, 
    {
      "op": "broadcast_lesser", 
      "name": "broadcast_lesser109", 
      "inputs": [[1473, 0, 0], [1475, 0, 0]]
    }, 
    {
      "op": "elemwise_mul", 
      "name": "_mul821", 
      "inputs": [[1476, 0, 0], [1473, 0, 0]]
    }, 
    {
      "op": "Activation", 
      "name": "activation219", 
      "attrs": {"act_type": "softrelu"}, 
      "inputs": [[1477, 0, 0]]
    }, 
    {
      "op": "elemwise_mul", 
      "name": "_mul822", 
      "inputs": [[1476, 0, 0], [1478, 0, 0]]
    }, 
    {
      "op": "broadcast_greater_equal", 
      "name": "broadcast_greater_equal109", 
      "inputs": [[1473, 0, 0], [1475, 0, 0]]
    }, 
    {
      "op": "elemwise_mul", 
      "name": "_mul823", 
      "inputs": [[1480, 0, 0], [1473, 0, 0]]
    }, 
    {
      "op": "elemwise_add", 
      "name": "_plus219", 
      "inputs": [[1479, 0, 0], [1481, 0, 0]]
    }, 
    {
      "op": "_plus_scalar", 
      "name": "_plusscalar214", 
      "attrs": {"scalar": "2.0"}, 
      "inputs": [[1482, 0, 0]]
    }, 
    {
      "op": "_div_scalar", 
      "name": "_divscalar118", 
      "attrs": {"scalar": "2.0"}, 
      "inputs": [[1483, 0, 0]]
    }, 
    {
      "op": "FullyConnected", 
      "name": "fullyconnected163", 
      "attrs": {"num_hidden": "1"}, 
      "inputs": [[1470, 0, 0], [1151, 0, 0], [1152, 0, 0]]
    }, 
    {
      "op": "zeros_like", 
      "name": "zeros_like150", 
      "inputs": [[1485, 0, 0]]
    }, 
    {
      "op": "_plus_scalar", 
      "name": "_plusscalar212", 
      "attrs": {"scalar": "20.0"}, 
      "inputs": [[1486, 0, 0]]
    }, 
    {
      "op": "broadcast_lesser", 
      "name": "broadcast_lesser108", 
      "inputs": [[1485, 0, 0], [1487, 0, 0]]
    }, 
    {
      "op": "elemwise_mul", 
      "name": "_mul818", 
      "inputs": [[1488, 0, 0], [1485, 0, 0]]
    }, 
    {
      "op": "Activation", 
      "name": "activation218", 
      "attrs": {"act_type": "softrelu"}, 
      "inputs": [[1489, 0, 0]]
    }, 
    {
      "op": "elemwise_mul", 
      "name": "_mul819", 
      "inputs": [[1488, 0, 0], [1490, 0, 0]]
    }, 
    {
      "op": "broadcast_greater_equal", 
      "name": "broadcast_greater_equal108", 
      "inputs": [[1485, 0, 0], [1487, 0, 0]]
    }, 
    {
      "op": "elemwise_mul", 
      "name": "_mul820", 
      "inputs": [[1492, 0, 0], [1485, 0, 0]]
    }, 
    {
      "op": "elemwise_add", 
      "name": "_plus218", 
      "inputs": [[1491, 0, 0], [1493, 0, 0]]
    }, 
    {
      "op": "elemwise_mul", 
      "name": "_mul825", 
      "inputs": [[1494, 0, 0], [1089, 0, 0]]
    }, 
    {
      "op": "square", 
      "name": "square64", 
      "inputs": [[1495, 0, 0]]
    }, 
    {
      "op": "elemwise_mul", 
      "name": "_mul826", 
      "inputs": [[1483, 0, 0], [1496, 0, 0]]
    }, 
    {
      "op": "_rdiv_scalar", 
      "name": "_rdivscalar78", 
      "attrs": {"scalar": "2.0"}, 
      "inputs": [[1497, 0, 0]]
    }, 
    {
      "op": "_sample_gamma", 
      "name": "sample_gamma14", 
      "inputs": [[1484, 0, 0], [1498, 0, 0]]
    }, 
    {
      "op": "sqrt", 
      "name": "sqrt14", 
      "inputs": [[1499, 0, 0]]
    }, 
    {
      "op": "_rdiv_scalar", 
      "name": "_rdivscalar79", 
      "attrs": {"scalar": "1.0"}, 
      "inputs": [[1500, 0, 0]]
    }, 
    {
      "op": "_sample_normal", 
      "name": "sample_normal14", 
      "inputs": [[1472, 0, 0], [1501, 0, 0]]
    }, 
    {
      "op": "Concat", 
      "name": "concat122", 
      "attrs": {
        "dim": "1", 
        "num_args": "5"
      }, 
      "inputs": [[1170, 0, 0], [1253, 0, 0], [1336, 0, 0], [1419, 0, 0], [1502, 0, 0]]
    }, 
    {
      "op": "Reshape", 
      "name": "reshape2", 
      "attrs": {"shape": "(-1, 100, 5)"}, 
      "inputs": [[1503, 0, 0]]
    }
  ], 
  "arg_nodes": [
    0, 
    3, 
    5, 
    8, 
    13, 
    34, 
    38, 
    62, 
    63, 
    67, 
    68, 
    83, 
    84, 
    88, 
    89, 
    105, 
    106, 
    1137, 
    1138, 
    1151, 
    1152
  ], 
  "node_row_ptr": [
    0, 
    1, 
    6, 
    7, 
    8, 
    9, 
    10, 
    11, 
    12, 
    13, 
    14, 
    763, 
    764, 
    765, 
    766, 
    767, 
    1516, 
    1517, 
    1518, 
    1519, 
    1520, 
    1521, 
    1522, 
    1523, 
    1524, 
    1525, 
    1526, 
    1527, 
    1528, 
    1529, 
    1530, 
    1531, 
    1532, 
    1533, 
    1534, 
    1535, 
    1536, 
    2285, 
    2286, 
    2287, 
    3036, 
    3037, 
    3038, 
    3039, 
    3040, 
    3041, 
    3042, 
    3043, 
    3044, 
    3045, 
    3046, 
    3047, 
    3048, 
    3049, 
    3050, 
    3051, 
    3052, 
    3053, 
    3054, 
    3055, 
    3056, 
    3057, 
    3058, 
    3059, 
    3060, 
    3061, 
    3062, 
    3063, 
    3064, 
    3065, 
    3066, 
    3067, 
    3071, 
    3072, 
    3073, 
    3074, 
    3075, 
    3076, 
    3077, 
    3078, 
    3079, 
    3080, 
    3081, 
    3082, 
    3083, 
    3084, 
    3085, 
    3086, 
    3087, 
    3088, 
    3089, 
    3090, 
    3091, 
    3095, 
    3096, 
    3097, 
    3098, 
    3099, 
    3100, 
    3101, 
    3102, 
    3103, 
    3104, 
    3105, 
    3106, 
    3107, 
    3108, 
    3109, 
    3110, 
    3111, 
    3112, 
    3113, 
    3114, 
    3115, 
    3116, 
    3117, 
    3118, 
    3120, 
    3121, 
    3122, 
    3123, 
    3124, 
    3128, 
    3129, 
    3130, 
    3131, 
    3133, 
    3134, 
    3135, 
    3136, 
    3137, 
    3138, 
    3139, 
    3140, 
    3141, 
    3142, 
    3143, 
    3144, 
    3146, 
    3147, 
    3148, 
    3149, 
    3150, 
    3154, 
    3155, 
    3156, 
    3157, 
    3159, 
    3160, 
    3161, 
    3162, 
    3163, 
    3164, 
    3165, 
    3166, 
    3167, 
    3168, 
    3169, 
    3170, 
    3171, 
    3172, 
    3173, 
    3174, 
    3175, 
    3176, 
    3177, 
    3178, 
    3180, 
    3181, 
    3182, 
    3183, 
    3184, 
    3188, 
    3189, 
    3190, 
    3191, 
    3193, 
    3194, 
    3195, 
    3196, 
    3197, 
    3198, 
    3199, 
    3200, 
    3201, 
    3202, 
    3203, 
    3204, 
    3206, 
    3207, 
    3208, 
    3209, 
    3210, 
    3214, 
    3215, 
    3216, 
    3217, 
    3219, 
    3220, 
    3221, 
    3222, 
    3223, 
    3224, 
    3225, 
    3226, 
    3227, 
    3228, 
    3229, 
    3230, 
    3231, 
    3232, 
    3233, 
    3234, 
    3235, 
    3236, 
    3237, 
    3238, 
    3240, 
    3241, 
    3242, 
    3243, 
    3244, 
    3248, 
    3249, 
    3250, 
    3251, 
    3253, 
    3254, 
    3255, 
    3256, 
    3257, 
    3258, 
    3259, 
    3260, 
    3261, 
    3262, 
    3263, 
    3264, 
    3266, 
    3267, 
    3268, 
    3269, 
    3270, 
    3274, 
    3275, 
    3276, 
    3277, 
    3279, 
    3280, 
    3281, 
    3282, 
    3283, 
    3284, 
    3285, 
    3286, 
    3287, 
    3288, 
    3289, 
    3290, 
    3291, 
    3292, 
    3293, 
    3294, 
    3295, 
    3296, 
    3297, 
    3298, 
    3300, 
    3301, 
    3302, 
    3303, 
    3304, 
    3308, 
    3309, 
    3310, 
    3311, 
    3313, 
    3314, 
    3315, 
    3316, 
    3317, 
    3318, 
    3319, 
    3320, 
    3321, 
    3322, 
    3323, 
    3324, 
    3326, 
    3327, 
    3328, 
    3329, 
    3330, 
    3334, 
    3335, 
    3336, 
    3337, 
    3339, 
    3340, 
    3341, 
    3342, 
    3343, 
    3344, 
    3345, 
    3346, 
    3347, 
    3348, 
    3349, 
    3350, 
    3351, 
    3352, 
    3353, 
    3354, 
    3355, 
    3356, 
    3357, 
    3358, 
    3360, 
    3361, 
    3362, 
    3363, 
    3364, 
    3368, 
    3369, 
    3370, 
    3371, 
    3373, 
    3374, 
    3375, 
    3376, 
    3377, 
    3378, 
    3379, 
    3380, 
    3381, 
    3382, 
    3383, 
    3384, 
    3386, 
    3387, 
    3388, 
    3389, 
    3390, 
    3394, 
    3395, 
    3396, 
    3397, 
    3399, 
    3400, 
    3401, 
    3402, 
    3403, 
    3404, 
    3405, 
    3406, 
    3407, 
    3408, 
    3409, 
    3410, 
    3411, 
    3412, 
    3413, 
    3414, 
    3415, 
    3416, 
    3417, 
    3418, 
    3420, 
    3421, 
    3422, 
    3423, 
    3424, 
    3428, 
    3429, 
    3430, 
    3431, 
    3433, 
    3434, 
    3435, 
    3436, 
    3437, 
    3438, 
    3439, 
    3440, 
    3441, 
    3442, 
    3443, 
    3444, 
    3446, 
    3447, 
    3448, 
    3449, 
    3450, 
    3454, 
    3455, 
    3456, 
    3457, 
    3459, 
    3460, 
    3461, 
    3462, 
    3463, 
    3464, 
    3465, 
    3466, 
    3467, 
    3468, 
    3469, 
    3470, 
    3471, 
    3472, 
    3473, 
    3474, 
    3475, 
    3476, 
    3477, 
    3478, 
    3480, 
    3481, 
    3482, 
    3483, 
    3484, 
    3488, 
    3489, 
    3490, 
    3491, 
    3493, 
    3494, 
    3495, 
    3496, 
    3497, 
    3498, 
    3499, 
    3500, 
    3501, 
    3502, 
    3503, 
    3504, 
    3506, 
    3507, 
    3508, 
    3509, 
    3510, 
    3514, 
    3515, 
    3516, 
    3517, 
    3519, 
    3520, 
    3521, 
    3522, 
    3523, 
    3524, 
    3525, 
    3526, 
    3527, 
    3528, 
    3529, 
    3530, 
    3531, 
    3532, 
    3533, 
    3534, 
    3535, 
    3536, 
    3537, 
    3538, 
    3540, 
    3541, 
    3542, 
    3543, 
    3544, 
    3548, 
    3549, 
    3550, 
    3551, 
    3553, 
    3554, 
    3555, 
    3556, 
    3557, 
    3558, 
    3559, 
    3560, 
    3561, 
    3562, 
    3563, 
    3564, 
    3566, 
    3567, 
    3568, 
    3569, 
    3570, 
    3574, 
    3575, 
    3576, 
    3577, 
    3579, 
    3580, 
    3581, 
    3582, 
    3583, 
    3584, 
    3585, 
    3586, 
    3587, 
    3588, 
    3589, 
    3590, 
    3591, 
    3592, 
    3593, 
    3594, 
    3595, 
    3596, 
    3597, 
    3598, 
    3600, 
    3601, 
    3602, 
    3603, 
    3604, 
    3608, 
    3609, 
    3610, 
    3611, 
    3613, 
    3614, 
    3615, 
    3616, 
    3617, 
    3618, 
    3619, 
    3620, 
    3621, 
    3622, 
    3623, 
    3624, 
    3626, 
    3627, 
    3628, 
    3629, 
    3630, 
    3634, 
    3635, 
    3636, 
    3637, 
    3639, 
    3640, 
    3641, 
    3642, 
    3643, 
    3644, 
    3645, 
    3646, 
    3647, 
    3648, 
    3649, 
    3650, 
    3651, 
    3652, 
    3653, 
    3654, 
    3655, 
    3656, 
    3657, 
    3658, 
    3660, 
    3661, 
    3662, 
    3663, 
    3664, 
    3668, 
    3669, 
    3670, 
    3671, 
    3673, 
    3674, 
    3675, 
    3676, 
    3677, 
    3678, 
    3679, 
    3680, 
    3681, 
    3682, 
    3683, 
    3684, 
    3686, 
    3687, 
    3688, 
    3689, 
    3690, 
    3694, 
    3695, 
    3696, 
    3697, 
    3699, 
    3700, 
    3701, 
    3702, 
    3703, 
    3704, 
    3705, 
    3706, 
    3707, 
    3708, 
    3709, 
    3710, 
    3711, 
    3712, 
    3713, 
    3714, 
    3715, 
    3716, 
    3717, 
    3718, 
    3720, 
    3721, 
    3722, 
    3723, 
    3724, 
    3728, 
    3729, 
    3730, 
    3731, 
    3733, 
    3734, 
    3735, 
    3736, 
    3737, 
    3738, 
    3739, 
    3740, 
    3741, 
    3742, 
    3743, 
    3744, 
    3746, 
    3747, 
    3748, 
    3749, 
    3750, 
    3754, 
    3755, 
    3756, 
    3757, 
    3759, 
    3760, 
    3761, 
    3762, 
    3763, 
    3764, 
    3765, 
    3766, 
    3767, 
    3768, 
    3769, 
    3770, 
    3771, 
    3772, 
    3773, 
    3774, 
    3775, 
    3776, 
    3777, 
    3778, 
    3780, 
    3781, 
    3782, 
    3783, 
    3784, 
    3788, 
    3789, 
    3790, 
    3791, 
    3793, 
    3794, 
    3795, 
    3796, 
    3797, 
    3798, 
    3799, 
    3800, 
    3801, 
    3802, 
    3803, 
    3804, 
    3806, 
    3807, 
    3808, 
    3809, 
    3810, 
    3814, 
    3815, 
    3816, 
    3817, 
    3819, 
    3820, 
    3821, 
    3822, 
    3823, 
    3824, 
    3825, 
    3826, 
    3827, 
    3828, 
    3829, 
    3830, 
    3831, 
    3832, 
    3833, 
    3834, 
    3835, 
    3836, 
    3837, 
    3838, 
    3840, 
    3841, 
    3842, 
    3843, 
    3844, 
    3848, 
    3849, 
    3850, 
    3851, 
    3853, 
    3854, 
    3855, 
    3856, 
    3857, 
    3858, 
    3859, 
    3860, 
    3861, 
    3862, 
    3863, 
    3864, 
    3866, 
    3867, 
    3868, 
    3869, 
    3870, 
    3874, 
    3875, 
    3876, 
    3877, 
    3879, 
    3880, 
    3881, 
    3882, 
    3883, 
    3884, 
    3885, 
    3886, 
    3887, 
    3888, 
    3889, 
    3890, 
    3891, 
    3892, 
    3893, 
    3894, 
    3895, 
    3896, 
    3897, 
    3898, 
    3900, 
    3901, 
    3902, 
    3903, 
    3904, 
    3908, 
    3909, 
    3910, 
    3911, 
    3913, 
    3914, 
    3915, 
    3916, 
    3917, 
    3918, 
    3919, 
    3920, 
    3921, 
    3922, 
    3923, 
    3924, 
    3926, 
    3927, 
    3928, 
    3929, 
    3930, 
    3934, 
    3935, 
    3936, 
    3937, 
    3939, 
    3940, 
    3941, 
    3942, 
    3943, 
    3944, 
    3945, 
    3946, 
    3947, 
    3948, 
    3949, 
    3950, 
    3951, 
    3952, 
    3953, 
    3954, 
    3955, 
    3956, 
    3957, 
    3958, 
    3960, 
    3961, 
    3962, 
    3963, 
    3964, 
    3968, 
    3969, 
    3970, 
    3971, 
    3973, 
    3974, 
    3975, 
    3976, 
    3977, 
    3978, 
    3979, 
    3980, 
    3981, 
    3982, 
    3983, 
    3984, 
    3986, 
    3987, 
    3988, 
    3989, 
    3990, 
    3994, 
    3995, 
    3996, 
    3997, 
    3999, 
    4000, 
    4001, 
    4002, 
    4003, 
    4004, 
    4005, 
    4006, 
    4007, 
    4008, 
    4009, 
    4010, 
    4011, 
    4012, 
    4013, 
    4014, 
    4015, 
    4016, 
    4017, 
    4018, 
    4020, 
    4021, 
    4022, 
    4023, 
    4024, 
    4028, 
    4029, 
    4030, 
    4031, 
    4033, 
    4034, 
    4035, 
    4036, 
    4037, 
    4038, 
    4039, 
    4040, 
    4041, 
    4042, 
    4043, 
    4044, 
    4046, 
    4047, 
    4048, 
    4049, 
    4050, 
    4054, 
    4055, 
    4056, 
    4057, 
    4059, 
    4060, 
    4061, 
    4062, 
    4063, 
    4064, 
    4065, 
    4066, 
    4067, 
    4068, 
    4069, 
    4070, 
    4071, 
    4072, 
    4073, 
    4074, 
    4075, 
    4076, 
    4077, 
    4078, 
    4080, 
    4081, 
    4082, 
    4083, 
    4084, 
    4088, 
    4089, 
    4090, 
    4091, 
    4093, 
    4094, 
    4095, 
    4096, 
    4097, 
    4098, 
    4099, 
    4100, 
    4101, 
    4102, 
    4103, 
    4104, 
    4106, 
    4107, 
    4108, 
    4109, 
    4110, 
    4114, 
    4115, 
    4116, 
    4117, 
    4119, 
    4120, 
    4121, 
    4122, 
    4123, 
    4124, 
    4125, 
    4126, 
    4127, 
    4128, 
    4129, 
    4130, 
    4131, 
    4132, 
    4133, 
    4134, 
    4135, 
    4136, 
    4137, 
    4138, 
    4140, 
    4141, 
    4142, 
    4143, 
    4144, 
    4148, 
    4149, 
    4150, 
    4151, 
    4153, 
    4154, 
    4155, 
    4156, 
    4157, 
    4158, 
    4159, 
    4160, 
    4161, 
    4162, 
    4163, 
    4164, 
    4166, 
    4167, 
    4168, 
    4169, 
    4170, 
    4174, 
    4175, 
    4176, 
    4177, 
    4179, 
    4180, 
    4181, 
    4182, 
    4183, 
    4184, 
    4185, 
    4186, 
    4187, 
    4188, 
    4189, 
    4190, 
    4191, 
    4192, 
    4193, 
    4194, 
    4195, 
    4196, 
    4197, 
    4198, 
    4200, 
    4201, 
    4202, 
    4203, 
    4204, 
    4208, 
    4209, 
    4210, 
    4211, 
    4213, 
    4214, 
    4215, 
    4216, 
    4217, 
    4218, 
    4219, 
    4220, 
    4221, 
    4222, 
    4223, 
    4224, 
    4226, 
    4227, 
    4228, 
    4229, 
    4230, 
    4234, 
    4235, 
    4236, 
    4237, 
    4239, 
    4240, 
    4241, 
    4242, 
    4243, 
    4244, 
    4245, 
    4246, 
    4247, 
    4248, 
    4249, 
    4250, 
    4251, 
    4252, 
    4253, 
    4254, 
    4255, 
    4256, 
    4257, 
    4258, 
    4259, 
    4260, 
    4261, 
    4262, 
    4263, 
    4264, 
    4265, 
    4266, 
    4267, 
    4268, 
    4269, 
    4270, 
    4271, 
    4272, 
    4273, 
    4274, 
    4275, 
    4276, 
    4277, 
    4278, 
    4279, 
    4280, 
    4281, 
    4282, 
    4283, 
    4284, 
    4285, 
    4286, 
    4288, 
    4289, 
    4290, 
    4291, 
    4292, 
    4296, 
    4297, 
    4298, 
    4299, 
    4301, 
    4302, 
    4303, 
    4304, 
    4305, 
    4306, 
    4307, 
    4308, 
    4309, 
    4310, 
    4311, 
    4312, 
    4314, 
    4315, 
    4316, 
    4317, 
    4318, 
    4322, 
    4323, 
    4324, 
    4325, 
    4327, 
    4328, 
    4329, 
    4330, 
    4331, 
    4332, 
    4333, 
    4334, 
    4335, 
    4336, 
    4337, 
    4338, 
    4339, 
    4340, 
    4341, 
    4342, 
    4343, 
    4344, 
    4345, 
    4346, 
    4347, 
    4348, 
    4349, 
    4350, 
    4351, 
    4352, 
    4353, 
    4354, 
    4355, 
    4356, 
    4357, 
    4358, 
    4359, 
    4360, 
    4361, 
    4362, 
    4363, 
    4364, 
    4365, 
    4366, 
    4367, 
    4368, 
    4369, 
    4370, 
    4371, 
    4372, 
    4373, 
    4374, 
    4375, 
    4376, 
    4377, 
    4378, 
    4379, 
    4380, 
    4381, 
    4382, 
    4383, 
    4384, 
    4385, 
    4386, 
    4387, 
    4389, 
    4390, 
    4391, 
    4392, 
    4396, 
    4397, 
    4398, 
    4399, 
    4401, 
    4402, 
    4403, 
    4404, 
    4405, 
    4406, 
    4407, 
    4408, 
    4409, 
    4410, 
    4411, 
    4413, 
    4414, 
    4415, 
    4416, 
    4420, 
    4421, 
    4422, 
    4423, 
    4425, 
    4426, 
    4427, 
    4428, 
    4429, 
    4430, 
    4431, 
    4432, 
    4433, 
    4434, 
    4435, 
    4436, 
    4437, 
    4438, 
    4439, 
    4440, 
    4441, 
    4442, 
    4443, 
    4444, 
    4445, 
    4446, 
    4447, 
    4448, 
    4449, 
    4450, 
    4451, 
    4452, 
    4453, 
    4454, 
    4455, 
    4456, 
    4457, 
    4458, 
    4459, 
    4460, 
    4461, 
    4462, 
    4463, 
    4464, 
    4465, 
    4466, 
    4467, 
    4468, 
    4469, 
    4470, 
    4471, 
    4472, 
    4473, 
    4474, 
    4475, 
    4476, 
    4477, 
    4478, 
    4479, 
    4480, 
    4482, 
    4483, 
    4484, 
    4485, 
    4489, 
    4490, 
    4491, 
    4492, 
    4494, 
    4495, 
    4496, 
    4497, 
    4498, 
    4499, 
    4500, 
    4501, 
    4502, 
    4503, 
    4504, 
    4506, 
    4507, 
    4508, 
    4509, 
    4513, 
    4514, 
    4515, 
    4516, 
    4518, 
    4519, 
    4520, 
    4521, 
    4522, 
    4523, 
    4524, 
    4525, 
    4526, 
    4527, 
    4528, 
    4529, 
    4530, 
    4531, 
    4532, 
    4533, 
    4534, 
    4535, 
    4536, 
    4537, 
    4538, 
    4539, 
    4540, 
    4541, 
    4542, 
    4543, 
    4544, 
    4545, 
    4546, 
    4547, 
    4548, 
    4549, 
    4550, 
    4551, 
    4552, 
    4553, 
    4554, 
    4555, 
    4556, 
    4557, 
    4558, 
    4559, 
    4560, 
    4561, 
    4562, 
    4563, 
    4564, 
    4565, 
    4566, 
    4567, 
    4568, 
    4569, 
    4570, 
    4571, 
    4572, 
    4573, 
    4575, 
    4576, 
    4577, 
    4578, 
    4582, 
    4583, 
    4584, 
    4585, 
    4587, 
    4588, 
    4589, 
    4590, 
    4591, 
    4592, 
    4593, 
    4594, 
    4595, 
    4596, 
    4597, 
    4599, 
    4600, 
    4601, 
    4602, 
    4606, 
    4607, 
    4608, 
    4609, 
    4611, 
    4612, 
    4613, 
    4614, 
    4615, 
    4616, 
    4617, 
    4618, 
    4619, 
    4620, 
    4621, 
    4622, 
    4623, 
    4624, 
    4625, 
    4626, 
    4627, 
    4628, 
    4629, 
    4630, 
    4631, 
    4632, 
    4633, 
    4634, 
    4635, 
    4636, 
    4637, 
    4638, 
    4639, 
    4640, 
    4641, 
    4642, 
    4643, 
    4644, 
    4645, 
    4646, 
    4647, 
    4648, 
    4649, 
    4650, 
    4651, 
    4652, 
    4653, 
    4654, 
    4655, 
    4656, 
    4657, 
    4658, 
    4659, 
    4660, 
    4661, 
    4662, 
    4663, 
    4664, 
    4665, 
    4666, 
    4668, 
    4669, 
    4670, 
    4671, 
    4675, 
    4676, 
    4677, 
    4678, 
    4680, 
    4681, 
    4682, 
    4683, 
    4684, 
    4685, 
    4686, 
    4687, 
    4688, 
    4689, 
    4690, 
    4692, 
    4693, 
    4694, 
    4695, 
    4699, 
    4700, 
    4701, 
    4702, 
    4704, 
    4705, 
    4706, 
    4707, 
    4708, 
    4709, 
    4710, 
    4711, 
    4712, 
    4713, 
    4714, 
    4715, 
    4716, 
    4717, 
    4718, 
    4719, 
    4720, 
    4721, 
    4722, 
    4723, 
    4724, 
    4725, 
    4726, 
    4727, 
    4728, 
    4729, 
    4730, 
    4731, 
    4732, 
    4733, 
    4734, 
    4735, 
    4736, 
    4737, 
    4738, 
    4739, 
    4740, 
    4741, 
    4742, 
    4743, 
    4744, 
    4745, 
    4746, 
    4747
  ], 
  "heads": [[1504, 0, 0]], 
  "attrs": {"mxnet_version": ["int", 10301]}
}